models/DeepANT_final_version3_epoch_100.pt_epoch_100.pt (torch, 24839 bytes, 6 tensors)

weight f4 [32, 14, 3]
000000 a4 77 2a be 43 7d 50 3f 86 72 4e be 6f 61 8b 3d
       -0.16647202 0.81441134 -0.20160875 0.06805693
000010 ee de 2f 3e 01 65 16 3f 2f 1b 11 3b 05 66 c4 bd
       0.17174885 0.5874787 0.0022141447 -0.09589771
000020 e5 a1 5a be 74 95 11 be ac 24 f4 3b d7 b4 07 be
       -0.2135082 -0.14217168 0.0074506607 -0.13252579
000030 f3 26 9d bc 91 d4 0c 3d 85 80 82 3d cf ef f8 3d
       -0.019183611 0.034382407 0.063721694 0.12155115
000040 6f c0 c3 bd d3 48 34 3e 73 df b9 3c 2e cd 81 be
       -0.09558188 0.17605905 0.022689557 -0.25351852
000050 97 21 51 be 83 19 92 3d fa 21 79 3d 95 dd 83 3e
       -0.2042297 0.07133772 0.06082342 0.2575499
000060 89 6f 68 bd 53 0b e8 bd 11 17 ab bd a0 9f c2 bd
       -0.056746993 -0.11330285 -0.08354009 -0.09503102
000070 4a 29 5b bc f0 68 f3 bd 12 b0 3d be ff 4c a0 3a
       -0.013376543 -0.118852496 -0.18524197 0.0012229978
000080 b4 cc d8 3e b5 c8 3e 3d ed 84 05 be 0f e0 ca bd
       0.42343676 0.046578128 -0.13038988 -0.09906017
000090 7e 36 25 3e 89 85 10 3d 1d c1 0a 40 5d 72 b0 3e
       0.16134068 0.0352836 2.1680367 0.34462252
0000a0 56 f4 4a 3e 58 c8 d0 3c 26 0a b5 bd 7f e3 3e 3e
       0.1981977 0.025486156 -0.08839826 0.1864147
0000b0 42 64 88 bf ad 53 f9 bc c7 01 18 3e 92 d9 5f 3f
       -1.0655596 -0.030435408 0.14844428 0.8744136
0000c0 c9 74 48 bd 4b 76 44 be 90 fc d2 3d ea 02 9b 3c
       -0.0489395 -0.1918575 0.10302079 0.018922288
0000d0 61 25 75 bc 69 23 f5 bc 99 6e a1 bc 39 e4 8f 3c
       -0.014962525 -0.029924111 -0.019706057 0.01756488
0000e0 7d 03 e4 3b fe 1a 10 bd 45 00 17 ba 90 2b ac 3c
       0.0069584236 -0.03518199 -0.0005760233 0.021016866
0000f0 46 ca a0 3d b0 19 db bc 2e 6f f0 bc 1b 4b 95 bc
       0.078510806 -0.026745647 -0.02934989 -0.01822429
000100 40 31 b1 bb af f1 ef 3c 3c 26 ab 3c a0 eb 76 3b
       -0.0054074824 0.029290048 0.020892255 0.0037677065
000110 4e 26 12 bd 05 fd 90 bc 40 62 8d 3b 54 33 67 bc
       -0.03568106 -0.017698774 0.004314691 -0.014111359
000120 a0 86 f2 3d 27 3e d3 bd 9c f8 07 bc c3 ee a6 3c
       0.11842084 -0.10314589 -0.008299019 0.020377522
000130 9e 0e 05 3d c2 b6 ee 3a be 3c a9 3c a1 6c 8e 3c
       0.032484643 0.0018212425 0.020658847 0.017385783
000140 58 30 e8 bc 73 2a 12 3a a4 86 8e 3d 96 7c a8 bd
       -0.028343365 0.00055757834 0.069592744 -0.08226888
000150 e4 78 ca be c6 d3 07 3f 3e bd 69 be 2c e8 9e 3e
       -0.39545357 0.53057516 -0.22826096 0.31036508
000160 74 01 06 bf 0c 5a 68 3e 47 1d 37 3d 0d 9e a2 bf
       -0.5234597 0.226906 0.044705655 -1.2704483
000170 64 23 7a 3f ba eb ff bc 72 b3 16 3c 47 6c 4a 3c
       0.9771025 -0.031240333 0.0091980565 0.012354917
000180 94 58 c8 3b 07 0a c3 3b 57 f3 ae bc 55 6d 91 3c
       0.006114075 0.005952123 -0.021356268 0.017752329
000190 0d ad a3 bc 33 c0 24 3c f8 d7 07 bc f5 82 5a 3c
       -0.019979978 0.0100555895 -0.008291237 0.013336887
0001a0 bb 45 35 3e 40 a0 85 bb e7 70 a6 3a 95 8d 83 3c
       0.17702381 -0.004077941 0.0012698442 0.016058723
0001b0 89 db 5c 3c 8e 13 a0 bc 6b d8 d9 bc 76 31 dd bb
       0.013480076 -0.019540574 -0.026592454 -0.006750281
0001c0 e2 ee 62 bc e5 53 89 bd 74 b8 bd bd 6f a5 d8 3d
       -0.013850899 -0.06705455 -0.09263697 0.10578429
0001d0 6e 6c e6 3c 5b 92 d9 bc 85 4a 7d bc a2 d6 3b ba
       0.028127875 -0.026559046 -0.015459661 -0.00071654667
0001e0 50 ee e3 bd 21 15 18 be fd 89 66 3f 32 d4 45 bd
       -0.11129439 -0.1485181 0.90054303 -0.04829807
0001f0 2a 09 2a be e4 ae f5 3e e6 5b 6a 3c 8e 07 13 bd
       -0.16605058 0.47984993 0.014304137 -0.035895877
000200 f0 70 1b 3e 84 e6 e8 3d 56 a3 24 3c 36 d3 e9 be
       0.15179801 0.11372092 0.010048708 -0.45668954
000210 d2 e2 d3 3d 4b 0e a9 be 02 4e 69 3f a8 db 13 3c
       0.10345997 -0.33018717 0.91134655 0.009024538
000220 ca e6 94 3a f3 69 70 3b f2 15 2d bc fd f3 16 bc
       0.0011360284 0.0036684244 -0.010564314 -0.009213445
000230 7a 4a 0d bc ce af 41 3c 33 72 b4 ba 60 cd 72 3b
       -0.008623714 0.0118217 -0.0013766944 0.0037048683
000240 dd 9b ae 3c 3b 73 de 3c 06 bd 39 bc 1f e7 7b bb
       0.021314556 0.027154556 -0.011336571 -0.003843732
000250 9a 0b 3b bb 0d 46 a6 bb b0 95 ab 3b 61 71 3d 3b
       -0.002854085 -0.0050742687 0.00523635 0.002890669
000260 f4 3a 8c bb d2 a8 1d bb e9 25 11 3c 92 ad 5c bc
       -0.0042794887 -0.0024056924 0.008859136 -0.013469117
000270 8e 05 7b bb a7 c5 bd 3c 47 43 6f 3b b4 47 91 bd
       -0.0038302871 0.023165537 0.0036508606 -0.070937544
000280 00 46 90 3d 82 a7 f4 bb 92 16 93 3e ee a7 72 3e
       0.070446014 -0.0074662575 0.28728157 0.23696873
000290 74 4b 30 bf d4 a4 f5 3d 30 d3 34 3d e8 c3 96 be
       -0.6886513 0.11994329 0.044146717 -0.2944634
0002a0 20 ff 5d bc 00 81 ed 3d d2 d9 0b bf ad dc bb bd
       -0.013549596 0.115968704 -0.5462924 -0.0917295
0002b0 4e 9e c8 3c a7 85 47 3e 45 98 8c 3e 8d 0b 36 be
       0.024489548 0.19484578 0.27459922 -0.17777844
0002c0 14 80 cf bf 9c ff 98 39 f1 58 a2 3b f1 d0 3a 3b
       -1.6210961 0.00029182143 0.0049544503 0.0028505886
0002d0 2e 99 86 bc ca 2b 28 bb 26 b3 27 bc d2 8c 59 3c
       -0.016430464 -0.0025660866 -0.010235583 0.013278203
0002e0 99 e3 31 3b 01 ef b8 bc 38 a6 b1 bc 53 01 0c bc
       0.0027143715 -0.022574903 -0.021685705 -0.008545238
0002f0 f4 4e f1 3b ce e2 e3 3b a2 9a 96 bb 52 15 da b9
       0.0073641483 0.0069545275 -0.0045960704 -0.00041596085
000300 47 dc 2d 3c cf e4 10 3c fd 7d 00 3c df 2e 44 3c
       0.0106116 0.008843615 0.007842538 0.011974066
000310 47 39 19 3c 6b c3 12 3b 0a 5d 97 3d 1f 46 a4 bd
       0.009352035 0.002239431 0.07390793 -0.08021187
000320 2f f0 0e bd f7 6f 3f 3d 87 bb 78 b9 89 45 d3 bd
       -0.034897026 0.046737637 -0.00023720982 -0.10315997
000330 6f 76 1b bd 36 3c 76 3e 19 f5 97 be 7b 36 94 bd
       -0.037954744 0.24046406 -0.29679182 -0.07236954
000340 e6 22 56 3e fb 4a d4 ba 7b a3 a2 bd 5d 77 91 3d
       0.2091175 -0.0016196662 -0.07941338 0.07102845
000350 e4 67 f4 bd c1 bd c8 3d ab f1 57 bd b5 70 06 be
       -0.11933878 0.09801818 -0.052720707 -0.13128932
000360 64 67 e3 bd f4 55 00 3e ca 00 a6 bf 41 7a 28 bc
       -0.111037046 0.12532789 -1.2968991 -0.010283054
000370 d3 2e 83 3b ce 0d eb bc d1 00 9e 3c 91 91 6c bc
       0.0040033846 -0.028693106 0.019287499 -0.014439003
000380 11 16 75 3b ac d2 b5 bc cd 40 0d bc 86 0c cf 3b
       0.0037397186 -0.022195183 -0.008621407 0.0063186316
000390 ba e0 97 3c 92 de 71 bc 38 a1 d3 3b 14 4f 94 bc
       0.018539775 -0.014762538 0.0064584278 -0.018104114
0003a0 6d 0e f4 ba dd 17 9d bc 93 cb 96 3c 45 74 b0 3b
       -0.0018620022 -0.019176418 0.018407619 0.005384954
0003b0 51 a8 c5 3c 4d 40 07 3d 45 1b 8b bc 38 86 9f 3c
       0.024128111 0.033020306 -0.016980777 0.01947318
0003c0 1f d0 b2 3d 85 6a 80 bd 31 c4 bc ba c0 13 a3 3a
       0.08731102 -0.06270317 -0.0014401731 0.0012441799
0003d0 5f e7 83 3d 33 22 1e 3c b3 d5 05 3e df a2 8a bd
       0.06440615 0.009651708 0.13069801 -0.067693464
0003e0 56 5e 14 be 73 94 5d bd 13 2d 36 bd 31 84 26 be
       -0.14489111 -0.05409665 -0.04447658 -0.16261365
0003f0 da f2 3c 3b 55 04 8d bf 22 a8 66 3f 06 ad 25 be
       0.0028831274 -1.1016947 0.901003 -0.16179284

bias f4 [32]
000000 d1 4f b1 be 3f a3 c7 bd 33 33 86 3d 4f a3 c6 ba
       -0.34631208 -0.097479336 0.06552734 -0.0015154871
000010 0b a2 1b be a9 7b 44 be 03 ac c0 3c 10 f1 9c be
       -0.15198533 -0.19187798 0.023519522 -0.30652666
000020 48 55 5a bd ad 75 dc 3b b1 6c 6a bc da 51 85 be
       -0.053303987 0.0067278952 -0.014308141 -0.2603901
000030 b8 f6 58 3e 3e d5 5a bd de 8f 85 3e 6f 75 bb bd
       0.21187866 -0.05342602 0.26086324 -0.09153258
000040 56 de 3e 3d 73 2d d7 3d 79 23 13 3e 4a 51 a9 bf
       0.046598755 0.105067156 0.14369 -1.3227932
000050 81 1c 45 bf b0 62 2c bf d6 33 86 bf 7c 75 22 be
       -0.7699662 -0.67338085 -1.0484569 -0.15865129
000060 13 bc be bd 85 2b eb 3c 71 72 10 bf fe b1 d4 be
       -0.09313216 0.028707275 -0.56424624 -0.41542047
000070 18 03 2c bf 88 e8 c4 bf e1 14 89 bd ff f7 4b bf
       -0.6719222 -1.5383463 -0.066934355 -0.79675287

weight f4 [32, 32, 3]
000000 56 04 d6 3b 71 a2 43 bc b5 35 2d be a2 fa 2b 3d
       0.0065312786 -0.0119405845 -0.16915019 0.04198707
000010 3a 70 15 bc 92 18 3c bf 92 91 90 3d 05 0e 32 be
       -0.009120995 -0.7347499 0.07059015 -0.1738816
000020 64 4f df 3f 95 98 32 be 62 a4 b6 3e 2f 5b ac bf
       1.7446103 -0.17441018 0.3567229 -1.3465327
000030 ad 32 a2 3e b9 83 8c be ad 2b 38 bf 6e 55 80 3e
       0.31679288 -0.27444246 -0.71941644 0.25065178
000040 d3 20 14 be 4e 35 30 c0 af 0e cb 3b 06 1c 97 be
       -0.14465646 -2.7532535 0.006196819 -0.29513568
000050 cb e3 c7 bd 3a 42 69 3e 3e 78 ab be 0b 6f 9c bf
       -0.09760245 0.2277917 -0.33490175 -1.2221388
000060 2a 34 23 be 56 e2 90 3e 07 d0 64 bf a2 b2 80 3d
       -0.15937868 0.2829768 -0.89379925 0.062840715
000070 48 82 c8 3d 48 0f ed be 38 05 be bd 18 52 3e 3e
       0.09790474 -0.4630072 -0.09278339 0.18586004
000080 06 3b 91 bf 23 e9 9a 3e 44 5d 31 be e9 88 30 c0
       -1.1346138 0.30255994 -0.17320734 -2.7583563
000090 91 4e aa be 47 d7 ff 3e 9d 2f 41 bf 3d 85 d4 bb
       -0.33263066 0.4996893 -0.7546328 -0.00648561
0000a0 88 9c ca 3c 8a dd 1d bf fc df 39 3e 5f 40 6d 3d
       0.024732843 -0.61666167 0.1815185 0.057922717
0000b0 cd f1 19 bf 0e 05 87 3d 85 6f 4c 3c 38 55 43 bf
       -0.60134584 0.06592761 0.01247776 -0.7630191
0000c0 03 2f 1b 3d bd 80 ba 3e 66 1b 93 bf 9b b8 ff 3c
       0.03788663 0.36426345 -1.1492736 0.031215956
0000d0 98 12 0a 3f e7 c3 9b bf 12 95 c6 3d 78 a6 4b 3e
       0.5393462 -1.216916 0.09696402 0.19887722
0000e0 5e 35 c5 3d b2 82 0e be 29 d3 18 bb 2d 99 1a bf
       0.096293196 -0.13917044 -0.002331922 -0.6038998
0000f0 5e ac a8 3d 19 7e 38 3d e5 68 c3 bf 3c 48 8c 39
       0.082360014 0.04504213 -1.5266386 0.000267567
000100 02 1c cf bb 40 e6 16 bf ff b3 52 3d fe e9 cf bd
       -0.0063204775 -0.58945084 0.05144119 -0.10152052
000110 f7 ce e8 be cb 31 76 bd db 5f 9a bc 6a 4a aa bf
       -0.45470402 -0.06010608 -0.018844536 -1.3303959
000120 41 d1 52 3d 1c c9 11 3e 02 7b 92 3e bf d1 40 3b
       0.05146909 0.14236873 0.28609473 0.0029421893
000130 17 49 1c 3f 98 9b 2c bf bf 7b 98 3c 14 0a 49 3b
       0.61049026 -0.6742492 0.018613694 0.0030676173
000140 77 52 99 be f4 eb 6b bc 93 6b 11 3e 56 20 34 bf
       -0.29945728 -0.014399517 0.14201193 -0.7036184
000150 31 1e 00 be c4 c6 0e 3e 09 7d 15 bf f2 e3 16 be
       -0.12511517 0.1394301 -0.58393914 -0.14735392
000160 d5 01 d7 be fc d0 20 3e a3 2e a0 3d 88 e5 90 bd
       -0.41993585 0.15704721 0.07821395 -0.070750296
000170 dc 0d 7f be 52 db 58 bb d5 fa 4f bd 6b d6 07 3e
       -0.2490763 -0.003308971 -0.05077632 0.13265388
000180 d0 f9 11 bf a2 4b 79 bd e2 92 94 be a7 e4 2a 3c
       -0.5702181 -0.060863145 -0.29018313 0.0104304915
000190 74 da b8 3e 97 5c 04 bf 7c b2 bd bd 02 0a af bd
       0.36104167 -0.5170378 -0.09262559 -0.08546831
0001a0 5e 73 0c 3e fa 11 80 3d 32 b8 01 be 88 b8 86 3e
       0.13715884 0.06253429 -0.12667921 0.2631266
0001b0 a0 6d ff bc 70 a7 a0 3d f7 2d 0f be 31 66 4e 3d
       -0.031180203 0.07844436 -0.13982378 0.050390426
0001c0 50 60 c0 bd cc 50 2f c0 3c ab d0 3e 25 4a bd 3d
       -0.0939337 -2.7393064 0.4075564 0.092426576
0001d0 fa 5e f5 3e 8c 9a b1 3c d9 89 1f bd 63 cf bc bf
       0.47924024 0.021680139 -0.03894982 -1.4750789
0001e0 33 88 03 3e d0 a5 0d be fa 00 72 be 6b 9c 42 be
       0.12844925 -0.13832784 -0.23633185 -0.19004981
0001f0 07 9d 2e 3d 48 71 d9 be 60 28 7f bd aa c6 63 3e
       0.04263022 -0.4246924 -0.062294364 0.22243753
000200 fd 6c 88 bf d1 54 d8 bd fc fe 13 3e 36 cc 7a be
       -1.065826 -0.105630524 0.14452738 -0.24491963
000210 2a 51 08 be 95 fc 9f 3c 61 f4 bf 3e 2e 5c 2c bd
       -0.13312212 0.01952962 0.37491134 -0.042080097
000220 4a 80 2b 3e b1 ed 84 be ab e3 13 bd 8d 71 f9 3c
       0.16748157 -0.25962594 -0.036105793 0.030449653
000230 3b c6 78 be 07 fe e1 3d d4 10 d8 bd 17 0e 78 be
       -0.24294369 0.1103478 -0.10550085 -0.24224125
000240 cd cb 10 3d 36 a5 68 3e f2 64 85 be 02 54 8d bd
       0.03535061 0.22719273 -0.26053578 -0.06900789
000250 fe b4 12 bc fe 38 91 bf a3 46 1c 3e 7d 1d a7 be
       -0.008954285 -1.1345518 0.15261321 -0.32639685
000260 83 b9 84 be 55 0a d3 bd 3a 41 a7 bd d4 c8 bb be
       -0.25922784 -0.10304705 -0.08166738 -0.36676657
000270 6f 56 a7 bc fd 56 96 3d 4b 37 b1 be b2 e8 0d be
       -0.020426957 0.073408104 -0.34612498 -0.13858297
000280 34 ee e4 3d c7 65 d1 bf 25 8b 93 be 55 b6 50 3e
       0.11178246 -1.6359185 -0.28817096 0.20382054
000290 23 3b 45 3e e2 32 bb bc 10 9a 9e 3e 18 9c 1d be
       0.1926084 -0.022851411 0.30976915 -0.15391576
0002a0 ee 43 43 3e 6a 1a 9c 3c 6d 80 33 be 00 d0 09 3e
       0.19068882 0.019055564 -0.1752946 0.13458252
0002b0 2c 95 59 be d6 58 05 3e 6f 67 84 bb b7 b6 7d b9
       -0.21248311 0.1302217 -0.0040406506 -0.00024196027
0002c0 ae c1 9a bf f2 7c 0a bd 15 3f eb bb 0f 6b 17 be
       -1.2090356 -0.033810563 -0.007179151 -0.14786933
0002d0 cf 72 76 3e 72 ed 81 be ac 2f 02 bf e0 6c c8 3b
       0.24067234 -0.2537647 -0.5085399 0.0061164945
0002e0 2d cc 43 be e8 70 00 be 13 72 36 3d 51 d0 08 3f
       -0.19120856 -0.1254307 0.044542383 0.53442866
0002f0 5e b7 1b bf d5 47 f0 3d 32 ff dd 3d a6 40 30 bf
       -0.6082667 0.11732451 0.1083969 -0.68848646
000300 1a 38 70 bc c9 2f 8c 3d b0 11 35 bd 59 01 d5 3d
       -0.014661813 0.06845052 -0.04420632 0.10400648
000310 c6 a7 23 be fd aa ac 3e 8c 91 24 bd c2 74 4a bd
       -0.15981969 0.33724204 -0.040177867 -0.049427755
000320 c4 8f b6 3c bc ac 8c bc 2f 5f 11 3d 03 55 31 b9
       0.02228535 -0.01717221 0.035491165 -0.00016911705
000330 7c 21 1e bb 5a fa 53 3d 15 59 5a bd da 99 53 3a
       -0.0024128845 0.051752426 -0.05330761 0.0008071937
000340 52 8c 4d bd f6 4b 66 3d 1e d3 59 3c 35 93 5d be
       -0.050182648 0.056224786 0.013294963 -0.21638186
000350 3f 55 cd 3c d1 7e 9b bb 0d b1 29 bb 73 86 12 3d
       0.025065063 -0.0047453423 -0.0025892884 0.035772752
000360 19 54 84 3c d3 62 35 bd 07 9a dd bc 33 a4 ff 3c
       0.016153382 -0.0442837 -0.027050985 0.031206226
000370 0b 33 d4 bd e3 f0 df bd 2e 4e 65 bd 99 63 29 3d
       -0.10361298 -0.10934617 -0.05598276 0.04135475
000380 ca 49 9d 3d df d2 ab 3c f0 00 83 3d df 7d e4 bd
       0.0768009 0.020974575 0.06396663 -0.111568205
000390 ff 49 a6 3d 66 a9 e6 bd 5f a2 a9 3c 01 4a 00 bb
       0.081195824 -0.11262779 0.020707307 -0.001957536
0003a0 91 92 a0 3c 19 bb 2a bd 48 58 d0 3c 45 d0 b2 bd
       0.019601138 -0.041682336 0.02543272 -0.087311305
0003b0 90 a8 a5 3d bb 36 7f bd 22 98 b9 3c 50 2c e0 3d
       0.08088791 -0.062308054 0.02265555 0.10945952
0003c0 59 a0 a6 3a 09 65 de bd 65 e6 b5 3d b9 f1 b6 bd
       0.0012712582 -0.10859115 0.08881835 -0.08932824
0003d0 eb d1 0d 3e 6a e8 a6 bd 0e 77 98 bb af e7 04 3e
       0.13849609 -0.08149798 -0.0046528643 0.12979005
0003e0 5d 66 2c 3f 92 fa 17 bd ae f3 34 be 12 c2 da be
       0.67343694 -0.037104197 -0.17671081 -0.4272619
0003f0 1a 79 a1 bc 4b d8 91 3d 25 4d 8b bd ca 0b 9a bd
       -0.019711066 0.07121333 -0.068018235 -0.0752178

bias f4 [32]
000000 1b a3 f7 3d 97 87 c0 3c 89 9e a2 bc c6 91 84 3e
       0.12091657 0.023502154 -0.019850986 0.25892466
000010 d2 7d 40 be 49 b4 0c bd f5 f9 15 bf 46 65 88 3e
       -0.18797997 -0.03435162 -0.5858453 0.26639766
000020 7e 0a f7 be 06 5c 0d 3c b3 d7 fd bd 2c ae 20 3d
       -0.48250192 0.008627897 -0.12394657 0.039228603
000030 af b9 c8 be 75 a4 75 3e 75 98 13 be cc da e6 be
       -0.39204165 0.23988517 -0.14413626 -0.45088804
000040 37 91 97 3d dc 40 56 be ea 95 74 be 37 c3 4c 3e
       0.074007444 -0.2092318 -0.23885313 0.19996344
000050 15 f2 25 bf 81 83 8f bd fd cd ee bd 4f c1 23 be
       -0.6482251 -0.07007504 -0.11660383 -0.1599171
000060 cc 46 a9 3c b7 96 10 3e 42 d7 a6 be 25 2f b1 bd
       0.020663641 0.14119993 -0.32586104 -0.0865157
000070 aa 66 a7 be dc 59 b3 be 9c d3 05 bf 65 db 58 be
       -0.32695514 -0.35029495 -0.52276015 -0.21177442

weight f4 [3, 192]
000000 bb 79 b7 bc 2c ad fc 3c d9 41 06 3d 07 c6 a4 bc
       -0.022396913 0.030844294 0.03277764 -0.020113958
000010 3f 2c 68 bc 9b d7 00 3e dd c2 e6 ba 32 52 84 bc
       -0.014170705 0.12582247 -0.0017605681 -0.016152475
000020 6a d4 32 bb 23 77 c9 bc c9 ef 56 bd ec 94 81 be
       -0.0027287253 -0.024592942 -0.05247477 -0.2530893
000030 6e 29 d2 3b cc 06 3f 3c 22 f9 42 bc c3 8b d5 bd
       0.00641363 0.011659335 -0.011900218 -0.10427048
000040 1b df 18 be 33 31 82 3e be 60 e8 bb 4e 0c ac bd
       -0.14928858 0.2542816 -0.0070916107 -0.084007844
000050 6f d5 ce bc a0 c3 8f bc 6b 97 cb bc 19 8b f7 bd
       -0.025248257 -0.017549336 -0.024852475 -0.12087078
000060 32 5a a6 bc c0 56 23 bd 53 19 0c bd 39 ee 50 bd
       -0.02030668 -0.039877653 -0.03420384 -0.051008437
000070 3b 06 21 3d d3 14 61 bc 98 b8 36 3d 83 c4 89 3b
       0.039312582 -0.013737875 0.044609636 0.004204334
000080 54 ed 74 3d 6a 78 18 3e ac fe 28 bd 0a f5 6b 3e
       0.059796646 0.14889684 -0.0412585 0.23042694
000090 74 8c b9 3a d5 88 2f bb e4 c4 93 bb 1b 11 69 3c
       0.0014156238 -0.002678444 -0.004509555 0.01422527
0000a0 99 c4 22 bd f7 8b 5c 3c ff 29 4a be 4d 4c 68 3d
       -0.03973827 0.013461105 -0.19742583 0.05671339
0000b0 49 43 02 be fd cd 29 3e 06 b9 03 be 0f d2 46 3e
       -0.1272098 0.16582485 -0.1286355 0.19416068
0000c0 85 9e 1e be b8 23 51 3d 91 9e 44 3d 87 52 62 bc
       -0.15490158 0.051059455 0.048002783 -0.013813621
0000d0 0e 98 4e 3e 01 71 53 3f e7 cc d7 ba 3e a0 9b ba
       0.20175192 0.82594305 -0.0016464264 -0.0011873317
0000e0 a0 8d 36 bb f1 7e 1e 3c 61 6b e4 3b b1 cf b8 bc
       -0.0027855411 0.00967382 0.0069708084 -0.022559972
0000f0 66 21 68 3f 4b c5 21 3d 8b 8f 1b 3c be 80 d1 bb
       0.9067596 0.039494794 0.0094946725 -0.006393521
000100 2e b3 c7 bc b6 a6 b5 bd bf ae bb bd b5 ab 89 3f
       -0.024377432 -0.08869688 -0.091641895 1.0755526
000110 a5 ed 0c 3f bd 59 f8 bd 53 e7 33 3e 1c 1e 0f 3e
       0.55050117 -0.12126491 0.17568712 0.1397633
000120 a0 cc 9a bc 0c 8c 67 3c 36 1f 81 bc 6d c5 c5 bd
       -0.0188964 0.014132511 -0.015761953 -0.096567966
000130 e8 ea 21 3d c8 15 34 3d 65 93 af 3d e9 2f 75 bd
       0.039530665 0.043966085 0.08573035 -0.059860144
000140 56 74 9a bc 86 83 8d bc d6 65 ca bd e9 6e 85 bd
       -0.018854301 -0.01727463 -0.09882705 -0.06515295
000150 0d f6 f4 3c ed be ca bc bf 6d b1 3e a5 e6 9d bc
       0.029902482 -0.024749244 0.34654042 -0.019275019
000160 32 13 14 3d dd 1e 69 bc 41 41 06 bf f6 ab db bc
       0.03615112 -0.01422855 -0.5244332 -0.026815396
000170 d6 76 99 3c 53 f0 45 bc ff a7 aa 3c cd d0 ab 3e
       0.018733423 -0.012081224 0.02083206 0.3355774
000180 3f 31 2b bf 65 bd 70 bc 57 70 09 3d fc 3c ae 3d
       -0.6687202 -0.014693593 0.0335544 0.085077256
000190 58 f1 11 3d 23 a6 dc 3c 0a 3b 57 bc 6f b3 c3 ba
       0.035630554 0.026934689 -0.013136635 -0.0014930795
0001a0 3b 60 2a 3b d4 93 9e bc 94 0e 4d bd 89 0b e6 bd
       0.00259973 -0.0193576 -0.05006273 -0.11232669
0001b0 6a ac 82 3d 07 21 8a bd 97 e6 be be 87 71 a0 bd
       0.063805416 -0.06744581 -0.372853 -0.078341536
0001c0 2f 3a 70 3c f6 e2 75 bd 12 52 fd 3d 27 09 37 bd
       0.01466231 -0.0600309 0.12369169 -0.044686463
0001d0 dd d2 b1 3d be 4a cd bb 4a d2 dd bb f5 03 0a 3d
       0.08682797 -0.0062650135 -0.006769453 0.03369518
0001e0 2b e1 5c 3e ae 91 c8 3b 72 c8 42 3d dc 54 8d 3b
       0.2157027 0.006120882 0.04755444 0.0043130945
0001f0 f2 5f 83 3e f5 84 db be 9e a8 e1 3d 48 32 9c bc
       0.25659138 -0.42874876 0.11018489 -0.019066945
000200 90 16 ef bd b1 5c 83 3c 64 d8 41 3e d0 e0 9b 3d
       -0.11674225 0.01603541 0.18930203 0.07611239
000210 8c aa 3f 3c 04 c4 41 3b 20 83 49 3d 8b a4 95 bd
       0.011698376 0.0029566297 0.049197316 -0.07306775
000220 d9 23 e8 bd c1 dc 66 bd ff 1a b2 bc d0 e2 99 b9
       -0.113349624 -0.05636287 -0.021741388 -0.00029351423
000230 b3 0b 89 3c cc cf 81 3a 06 25 49 bd 1a 8f 09 be
       0.016729211 0.0009903847 -0.049107574 -0.13433495
000240 e1 69 cc 3e 49 3b da 3e 14 71 e0 be a3 13 cf 3d
       0.3992453 0.42623356 -0.43836272 0.10111167
000250 dd 82 53 3e bd f6 41 be d6 e6 c1 3c 77 41 3d bb
       0.20655389 -0.1894178 0.023669641 -0.0028878131
000260 41 d6 9c bd 50 f5 ea 3b f8 46 7e be 8b 32 c9 be
       -0.07658053 0.007170357 -0.2483176 -0.39296374
000270 4d 43 fb 3d 0f 8c 40 3d 85 83 02 bc 59 16 81 bd
       0.12268696 0.04700857 -0.007965927 -0.063030906
000280 96 b1 a0 bd 3d 88 15 be f3 2b a9 3c 2b b7 e5 bc
       -0.07846372 -0.14602752 0.02065084 -0.028041443
000290 d8 6e 0f bd e3 2f bc 3c b9 ec ad bc 7f c5 32 bd
       -0.03501782 0.022972053 -0.021231042 -0.04364538
0002a0 28 e8 64 3d 86 55 59 3d b1 8a 63 be d3 de df 3e
       0.055885464 0.053060077 -0.22220875 0.4372469
0002b0 fb 81 68 3e 4b 99 98 3c 60 0f bb bd 73 f3 b9 3c
       0.22705834 0.018627783 -0.09133792 0.022699093
0002c0 d6 5b 4b 3d 48 8a a0 bb 3d 75 71 3d d6 ba a4 3b
       0.04964813 -0.004899297 0.058949698 0.0050271554
0002d0 a0 79 a6 bd ed c9 e8 3d fd 01 44 bc 47 20 fc 3a
       -0.08128667 0.11366639 -0.011963365 0.0019235694
0002e0 72 25 f9 3c d8 50 83 bd 37 44 7c bd ba 28 ae bd
       0.030413363 -0.06411904 -0.061588492 -0.08503862
0002f0 6e f8 3e 3c ef 74 11 3e 85 6d 38 bd dc 14 65 bd
       0.01165591 0.14204763 -0.04502632 -0.055928096
000300 1f a7 06 3c 2b df 5a 3e 30 1c 0c 3d e2 04 34 bc
       0.008218556 0.21374194 0.03420657 -0.010987492
000310 c1 c7 b9 bd 2b fa 51 3d d8 d6 4e 39 cf 18 d5 bb
       -0.09071303 0.05126397 0.00019725726 -0.0065032016
000320 53 6d 19 3d 66 3f 2b 3c 63 b3 59 3c 7d 87 a2 3d
       0.037457775 0.010452127 0.013287398 0.079359986
000330 59 49 a8 ba 09 1a 6f 3b cc a6 04 3d 53 66 8d 3d
       -0.0012839242 0.0036484024 0.032385632 0.069042824
000340 19 8e 28 3d db 25 1d be dd ba e4 39 f7 7d 0e 3d
       0.04115114 -0.15346472 0.00043626773 0.0347881
000350 23 10 82 3d 5c 2d 19 ba e7 8f 8d 3c b0 7c 0c 3e
       0.06350734 -0.0005843246 0.017280532 0.1371944
000360 b4 f6 d1 3b 96 b8 53 3d b6 18 ef bb b7 f3 4c bc
       0.006407583 0.051689707 -0.007296647 -0.012509278
000370 6f 40 6d bc 15 ae a4 bc 42 bf 85 bc 4e 95 9b bd
       -0.014480694 -0.02010254 -0.01632655 -0.07596837
000380 f3 9e 78 bd b2 2f 0a be 67 8e 46 bd 2b 9d 6f bd
       -0.06069846 -0.13494757 -0.04847565 -0.058499496
000390 88 2c fe 3a b0 1b 7d 3b 76 1e d2 bc da 5d a6 bd
       0.0019391933 0.003862124 -0.02564929 -0.081233695
0003a0 8e ff c9 bc b8 41 3e bd 51 d6 9a 3d 1d c4 2f 3c
       -0.02465799 -0.046449393 0.07560409 0.010727909
0003b0 fa ac 19 3c 92 bf ef bc 09 17 c3 3d 0f 4b 32 3e
       0.00937962 -0.029266153 0.09525878 0.17411445
0003c0 94 fa 55 3e 60 a0 fe bd fa 4d 06 3d f3 0f b4 bc
       0.20896369 -0.12432933 0.032789208 -0.021980261
0003d0 ee 63 4a bd 74 71 b2 bc ec 31 f5 3b 66 80 d2 3c
       -0.049411707 -0.021782614 0.007482758 0.02569599
0003e0 c2 c4 a9 3c de ca 54 3c 19 e2 1b 3e 0e c3 6c be
       0.020723704 0.01298782 0.15222968 -0.23121282
0003f0 6d de bc be a9 d4 dc bd 8c ea f7 3d b3 e2 71 bd
       -0.36888447 -0.10782749 0.12105283 -0.059054088

bias f4 [3]
000000 12 64 ee bd 39 9e 53 bd bb 85 5e bd
       -0.11640181 -0.051664565 -0.054326754
