models/GRU_AE_epoch_1000.pt (torch, 507786 bytes, 34 tensors)

weight_ih_l0 f4 [192, 14]
0.064422786 -0.080265045 0.012830043 -0.08286183 -0.020096596 -0.023967382 0.0024855016 0.039212096
-0.056664173 -0.0018613044 0.038780354 -0.04563189 0.013261755 -0.09308523 -0.10341201 0.13879755
0.08785156 0.08117706 -0.063398845 0.012278187 -0.015926367 0.017668797 0.053845264 0.16536611
-0.10790685 -0.05060757 0.05426034 0.0011452626 0.044300497 -0.009945128 -0.073711306 0.005641717
0.14559038 0.08124145 0.16635492 -0.08594749 -0.007983993 0.037393194 -0.083507314 -0.081371516
-0.020566246 -0.0900782 -0.059821934 -0.0028465835 0.09589571 -0.04539657 -0.0012963889 -0.15224165
-0.041142497 -0.123808786 -0.07854458 -0.07725663 -0.014425637 -0.07123549 -0.16131444 -0.06374245
0.11021619 0.13466084 0.023787813 0.09821224 0.005360104 0.022690797 -0.095888 -0.012129781
-0.10938629 -0.01562811 -0.02025731 -0.004943035 -0.084310114 0.069450766 0.0807654 -0.046501886
-0.018879134 0.023817783 0.064366914 -0.10580166 0.06295768 -0.15063573 -0.082760364 -0.29099983
0.04195383 -0.17411034 -0.047743734 0.039600767 0.0021417818 -0.07811404 0.16029654 0.0074543944
-0.18477598 0.1654434 0.13748121 -0.0413468 0.08556209 -0.05560501 -0.11092886 0.049542487
-0.04033418 -0.054631032 -0.1497292 0.21508478 -0.019826086 0.065530315 0.036576338 -0.052359782
0.023375805 -0.07278418 -0.10326227 0.15907693 -0.05168986 0.06087742 -0.004215988 0.082564674
-0.011170657 0.01508628 -0.016074028 -0.16603293 -0.08840416 -0.0081044985 0.009515822 -0.07240821
0.04690649 -0.07128894 -0.1145696 -0.021696642 -0.040813595 -0.057824608 -0.10807268 0.050531033
0.009771032 0.04753609 0.030877678 0.08709252 0.11170718 0.08681856 0.10554766 0.20642816
-0.11933736 0.06057341 -0.04851319 -0.0054010646 0.0073206495 -0.0368123 -0.0109009985 -0.19894011
0.081190355 -0.026649227 -0.08093876 0.035439517 0.117763676 0.05880487 -0.17659394 -0.13016135
0.005546783 0.14173332 -0.08963055 -0.019468496 0.15710504 0.12177056 -0.090394616 0.09813893
-0.13105056 0.029974649 0.009945496 -0.057045277 -0.05569404 0.058548957 -0.033544533 -0.017025262
0.042590436 0.13293111 0.0147191305 -0.16472726 -0.09858294 0.057254344 0.021144267 -0.020018864
0.054389708 -0.0430017 0.093031384 0.016462302 0.03922634 -0.115663856 0.1086226 -0.004562441
-0.020162443 0.05774986 -0.047291446 0.08748991 -0.14720555 0.05522284 -0.08414526 -0.04878437
0.03329982 -0.07561795 0.10262408 0.079390325 0.07886997 0.025223348 -0.0809278 -0.036787584
0.052837037 0.0148370005 0.031294607 0.007198403 0.010078535 0.046085335 0.018971298 -0.1932837
0.07316583 -0.057263076 0.32154658 -0.08531045 -0.105269894 -0.11369883 0.06466221 -0.035862863
0.092676625 0.04040062 -0.042467106 0.107045375 -0.011980608 -0.04206201 -0.09353512 0.016737549
-0.0004544435 -0.042689044 0.08741877 -0.09263765 0.06409419 -0.028711414 -0.01068386 0.13552722
-0.025340384 0.10692136 0.09439708 -0.031356968 0.005880476 -0.046834726 -0.13341275 -0.06257031
0.17587654 -0.095004246 -0.009864501 -0.16273057 0.06915773 0.103419974 0.009583058 0.124364786
0.041089084 -0.06695861 -0.045218073 -0.008946418 -0.109025255 0.09905086 0.14506863 0.018612847
00000000: 18f0 833d 0062 a4bd 1a35 523c 77b3 a9bd
00000010: 9ea1 a4bc 3e57 c4bc cce3 223b dd9c 203d
00000020: b118 68bd 03f7 f3ba 26d8 1e3d 81e8 3abd
00000030: d547 593c 78a3 bebd adc9 d3bd f220 0e3e
00000040: 85eb b33d 2940 a63d 41d7 81bd 732a 493c
00000050: 0378 82bc 27be 903c da8c 5c3d bc55 293e
00000060: 44fe dcbd e249 4fbd 1740 5e3d a31c 963a
00000070: 7074 353d e4f0 22bc f4f5 96bd 27de b83b
00000080: a515 153e eb61 a63d f258 2a3e 3d05 b0bd
00000090: 4bcf 02bc 9b29 193d e205 abbd 1ca6 a6bd
000000a0: 8b7a a8bc eb7a b8bd d807 75bd bf8d 3abb
000000b0: f864 c43d c1f1 39bd 98eb a9ba 3ce5 1bbe
000000c0: 0985 28bd 768f fdbd fbdb a0bd b938 9ebd
000000d0: 8259 6cbc eae3 91bd 9d2f 25be 678b 82bd
000000e0: 07b9 e13d 88e4 093e a9de c23c 8023 c93d
000000f0: d0a3 af3b 0de2 b93c ee60 c4bd fdbb 46bc
00000100: eb05 e0bd 8606 80bc a8f2 a5bc 2ff9 a1bb
00000110: c8aa acbd 343c 8e3d 5468 a53d c378 3ebd
00000120: 6aa8 9abc 831d c33c cdd2 833d 8aae d8bd
00000130: f5ef 803d 4140 1abe 447e a9bd eefd 94be
00000140: c7d7 2b3d fb49 32be ef8e 43bd 6a34 223d
00000150: 235d 0c3b 41fa 9fbd c724 243e fe43 f43b
00000160: ea35 3dbe ff69 293e e0c7 0c3e 435b 29bd
00000170: 2d3b af3d 14c2 63bd ac2e e3bd 10ed 4a3d
00000180: 7435 25bd cac4 5fbd 9d52 19be 2f3f 5c3e
00000190: 516a a2bc c234 863d 12d1 153d 3677 56bd
000001a0: 9e7e bf3c df0f 95bd 2b7b d3bd 10e5 223e
000001b0: bfb8 53bd 9a5a 793d 4526 8abb ab17 a93d
000001c0: 2205 37bc 722c 773c aead 83bc 8904 2abe
000001d0: 3e0d b5bd bbc8 04bc 40e8 1b3c c14a 94bd
000001e0: 0521 403d f0ff 91bd 77a3 eabd 28bd b1bc
000001f0: 282c 27bd 7fd9 6cbd 3655 ddbd a1f9 4e3d
00000200: ae16 203c 34b5 423d 2ff3 fc3c 905d b23d
00000210: bcc6 e43d eecd b13d 5f29 d83d e761 533e
00000220: 2567 f4bd d31b 783d c4b5 46bd 6afb b0bb
00000230: 0fe2 ef3b 7fc8 16bd 1a9a 32bc f5b6 4bbe
00000240: 2147 a63d 7b4f dabc 38c3 a5bd 0729 113d
00000250: 152e f13d 60dd 703d 0bd5 34be 0449 05be
00000260: cac1 b53b 8a22 113e 3990 b7bd 657c 9fbc
00000270: 25e0 203e d862 f93d d020 b9bd 10fd c83d
00000280: 1e32 06be 658d f53c 6ff2 223c 4fa8 69bd
00000290: 6f1f 64bd 08d1 6f3d fe65 09bd 9078 8bbc
000002a0: 4f73 2e3d 181f 083e 8228 713c 43ae 28be
000002b0: dae5 c9bd 8883 6a3d be36 ad3c 9afe a3bc
000002c0: bec7 5e3d 8d22 30bd 3d87 be3d f3db 863c
000002d0: ccab 203d 2ce1 ecbd 8775 de3d 8780 95bb
000002e0: b52b a5bc 1e8b 6c3d adb4 41bd e92d b33d
000002f0: 0dbd 16be 5831 623d 5a54 acbd 1fd2 47bd
00000300: 6465 083d 95dd 9abd 932c d23d 6597 a23d
00000310: 9486 a13d 32a1 ce3c 79bd a5bd 94ae 16bd
00000320: a66b 583d e416 733c c62e 003d 95e0 eb3b
00000330: 7120 253c fac3 3c3d b269 9b3c 2aec 45be
00000340: f7d7 953d b08c 6abd c1a1 a43e 3fb7 aebd
00000350: be97 d7bd efda e8bd 9f6d 843d f0e4 12bd
00000360: 3ecd bd3d 1f7b 253d fdf1 2dbd 9b3a db3d
00000370: 504a 44bc 3749 2cbd 578f bfbd 2f1d 893c
00000380: 6042 eeb9 b5da 2ebd 9d08 b33d cfb8 bdbd
00000390: d143 833d 3334 ebbc 5b0b 2fbc a6c7 0a3e
000003a0: a396 cfbc 96f9 da3d 4253 c13d 2a70 00bd
000003b0: 02b1 c03b c5d5 3fbd 5a9d 08be dd24 80bd
000003c0: fb18 343e 9691 c2bd b79e 21bc d8a2 26be
000003d0: 91a2 8d3d dacd d33d 4202 1d3c f7b2 fe3d
000003e0: 074d 283d 9921 89bd 9636 39bd ff93 12bc
000003f0: a248 dfbd 2ddb ca3d df8c 143e f879 983c

weight_hh_l0 f4 [192, 64]
-0.022258673 -0.013490577 0.19204278 0.0058221146 0.003617042 0.042628087 -0.027912037 0.056112617
-0.11504399 -0.13510951 0.08053225 -0.058875453 -0.059941966 0.2381681 -0.023012146 -0.16951352
0.27812362 -0.028289936 0.039011937 0.021057235 -0.11411933 0.04849639 -0.052488822 -0.073568046
0.08757675 -0.009661199 -0.3344428 0.05280584 0.009081182 0.10995296 -0.069400586 -0.01811365
0.075696886 -0.08256053 0.032819048 0.110011965 -0.005443141 0.0014116804 -0.0029018011 0.16263378
-0.200428 0.19118035 0.004235822 -0.035627272 0.09124361 0.18140857 0.038160466 0.18281072
0.06787528 -0.098832555 -0.10192704 -0.1210174 -0.03410051 0.18912183 0.03415575 0.008578235
-0.026444778 0.020615105 0.019521113 0.00942245 -0.03282248 -0.054101735 -0.14688712 -0.031945053
0.10481998 0.089198746 0.17905 0.13377377 -0.09995954 -0.07926753 -0.019730775 -0.0180022
-0.037500672 0.16747387 -0.0057741916 -0.027117142 -0.014078767 -0.07956281 0.10632103 -0.061730202
0.019450428 -0.05043288 -0.041545637 0.20396152 -0.20330276 0.07706564 -0.05856703 -0.028547714
-0.11510944 0.095513515 -0.15595092 0.074670404 0.006860784 -0.14732265 0.12424074 0.07817329
-0.021242924 0.02935152 0.21532817 0.11020267 0.11433174 -0.014386037 -0.122930534 0.046342924
-0.005987881 0.13684545 0.0482073 -0.09921825 0.189775 0.044625018 0.050940413 -0.03492756
0.070935845 0.09983599 0.032601375 0.027247911 -0.016752854 -0.17978965 -0.030265622 -0.15265024
-0.06252928 -0.03668714 -0.15558092 0.16800836 -0.14499219 0.009190652 0.19256602 0.289758
0.051199332 0.04671541 -0.133358 0.05361822 0.092462294 0.012274732 -0.115628816 -0.12857248
-0.16626531 0.023690078 0.10177719 0.11251737 -0.038570993 -0.077493146 0.08021447 -0.025574233
0.0740375 -0.10149485 0.07274849 -0.045447163 0.028046597 -0.031516585 0.03865922 -0.0105858985
0.09720822 -0.1711568 -0.005498655 -0.14220437 0.096208096 0.006072416 -0.085998744 -0.01752488
-0.08623086 -0.03263141 0.12326473 0.08255647 -0.107523166 0.059323046 -0.04935075 0.106146045
-0.11875506 0.09275442 -0.0071983743 -0.19721991 -0.07064067 -0.09257292 -0.13373575 -0.062062915
0.0028506157 -0.07973069 0.035901092 0.057576418 -0.005323951 0.0998614 0.0348279 -0.057657607
0.11005685 -0.07754656 0.13887341 0.20321816 0.16048779 -0.15428323 -0.19790667 -0.20034012
0.015883638 0.011106994 -0.011636283 -0.017041162 -0.049295086 0.040958602 0.05498342 -0.21060932
-0.009207366 0.09871244 -0.07746836 0.013787784 0.029642673 -0.047792595 -0.18456998 0.08674373
-0.07701321 -0.02222918 0.16880219 -0.07597426 -0.002424742 0.09361713 -0.17067674 0.04688155
-0.12587483 0.050059084 -0.104549736 0.076317005 0.07011241 0.08030012 -0.030112777 -0.07778831
-0.132301 0.11028002 0.06266556 0.21934123 -0.023193995 -0.011730357 -0.016540483 0.036529634
0.035396405 -0.114592664 -0.07793569 -0.1175416 0.031071646 0.07717782 -0.10229883 -0.12860699
-0.036376905 0.044593077 -0.21378958 -0.013685621 0.099003464 -0.12249114 -0.0835418 0.028272713
-0.0008623356 0.13261884 0.01975807 0.06398554 -0.10125431 -0.03501091 -0.0035854976 -0.00065126986
00000000: d257 b6bc 9507 5dbc dda6 443e 70c7 be3b
00000010: e50b 6d3b ca9a 2e3d c9a7 e4bc 58d6 653d
00000020: 2f9c ebbd 265a 0abe 18ee a43d 6327 71bd
00000030: b585 75bd 57e2 733e f883 bcbc f494 2dbe
00000040: 3866 8e3e 4cc0 e7bc fbca 1f3d 3980 ac3c
00000050: 65b7 e9bd 27a4 463d 85fe 56bd d8aa 96bd
00000060: 705b b33d 014a 1ebc 163c abbe f04a 583d
00000070: 3dc9 143c 042f e13d e521 8ebd 1463 94bc
00000080: f806 9b3d 7f15 a9bd 446d 063d f44d e13d
00000090: 605c b2bb 2208 b93a 252c 3ebb 7889 263e
000000a0: ff3c 4dbe c8c4 433e a6cc 8a3b e7ed 11bd
000000b0: eedd ba3d 2bc3 393e 264e 1c3d bc32 3b3e
000000c0: 3202 8b3d b968 cabd 20bf d0bd f8d7 f7bd
000000d0: faac 0bbd 27a9 413e e6e6 0b3d ba8b 0c3c
000000e0: b8a2 d8bc 02e1 a83c beea 9f3c 9f60 1a3c
000000f0: dd70 06bd c899 5dbd 9469 16be d1d8 02bd
00000100: dcab d63d d5ad b63d e258 373e fefb 083e
00000110: 96b7 ccbd 0457 a2bd 6fa2 a1bc 5a79 93bc
00000120: 4e9a 19bd 457e 2b3e 6e35 bdbb c524 debc
00000130: a1aa 66bc d4f1 a2bd d7be d93d cfd8 7cbd
00000140: 8156 9f3c b592 4ebd c22b 2abd 4adb 503e
00000150: 992e 50be 97d4 9d3d fbe3 6fbd e5dc e9bc
00000160: 80be ebbd 979c c33d 99b1 1fbe ccec 983d
00000170: 6dd0 e03b c0db 16be ee71 fe3d 5119 a03d
00000180: a405 aebc 9972 f03c fd7e 5c3e f0b1 e13d
00000190: c226 ea3d 6ab3 6bbc 01c3 fbbd 14d2 3d3d
000001a0: fd35 c4bb 3721 0c3e 0575 453d f032 cbbd
000001b0: 6154 423e b9c8 363d e5a6 503d 3310 0fbd
000001c0: d046 913d d076 cc3d 0589 053d 0337 df3c
000001d0: 483d 89bc c71a 38be 9cef f7bc 5850 1cbe
000001e0: 5a0f 80bd 4145 16bd 9b50 1fbe 620a 2c3e
000001f0: d578 14be 6394 163c 0730 453e 295b 943e
00000200: 64b6 513d a858 3f3d 008f 08be c79e 5b3d
00000210: df5c bd3d f51b 493c cdce ecbd 81a8 03be
00000220: 7441 2abe b211 c23c 8f70 d03d 826f e63d
00000230: 9efc 1dbd bab4 9ebd 7c47 a43d 0e81 d1bc
00000240: f9a0 973d 88dc cfbd 29fd 943d ce26 3abd
00000250: fac1 e53c 8917 01bd 2159 1e3d 7a70 2dbc
00000260: 1a15 c73d ba43 2fbe 102e b4bb 069e 11be
00000270: c008 c53d 1efb c63b 1c20 b0bd 5690 8fbc
00000280: ce99 b0bd 83a8 05bd 3872 fc3d 5e13 a93d
00000290: 1b35 dcbd b9fc 723d 0324 4abd 1963 d93d
000002a0: da35 f3bd 08f6 bd3d 57e0 ebbb 04f4 49be
000002b0: 0eac 90bd df96 bdbd 06f2 08be af35 7ebd
000002c0: 65d1 3a3b d849 a3bd 060d 133d 40d5 6b3d
000002d0: 8a74 aebb 2284 cc3d b3a7 0e3d 622a 6cbd
000002e0: 7c65 e13d bbd0 9ebd d534 0e3e 6c18 503e
000002f0: e956 243e 6cfc 1dbe 0ca8 4abe f625 4dbe
00000300: 671e 823c 1cfa 353c 1ca6 3ebc e899 8bbc
00000310: a5e9 49bd 35c4 273d 4b36 613d f8a9 57be
00000320: 7eda 16bc bf29 ca3d bba7 9ebd 28e6 613c
00000330: 31d5 f23c 2bc2 43bd eaff 3cbe b2a6 b13d
00000340: 1ab9 9dbd f819 b6bc 7bda 2c3e 6598 9bbd
00000350: 6ce8 1ebb 56ba bf3d e2c5 2ebe de06 403d
00000360: 55e5 00be c10a 4d3d 2c1e d6bd 174c 9c3d
00000370: 1897 8f3d 6474 a43d 12af f6bc 7a4f 9fbd
00000380: ea79 07be 7eda e13d cd56 803d fd9a 603e
00000390: 5501 bebc af30 40bc e87f 87bc 19a0 153d
000003a0: d2fb 103d 8faf eabd bf9c 9fbd a6b9 f0bd
000003b0: f789 fe3c 680f 9e3d 0d82 d1bd 8db1 03be
000003c0: f3ff 14bd 3ba7 363d a8eb 5abe a839 60bc
000003d0: 54c2 ca3d a3dc fabd f717 abbd 2d9c e73c
000003e0: 5d0e 62ba 3ccd 073e addb a13c da0a 833d
000003f0: 6b5e cfbd 9a67 0fbd abfa 6abb fbb9 2aba

bias_ih_l0 f4 [192]
-0.0032008067 0.15425454 -0.08147594 -0.047377888 -0.0741201 -0.11661157 -0.10440841 -0.06008174
-0.055366993 0.12259036 -0.007748241 0.11331591 0.16263232 0.021375317 0.067390844 0.034587372
-0.020191316 -0.06978478 0.036952212 0.079396546 0.040279757 0.041986402 -0.11071202 -0.09013832
0.16981542 -0.028095307 -0.018922798 0.02822213 0.008433754 0.18330018 -0.025936007 -0.113123514
0.091181986 -0.011770273 0.07603286 -0.038871255 0.07489725 -0.07640039 0.059601206 -0.004799914
0.08395357 0.1449373 0.055947993 -0.076181635 -0.08806354 -0.034887232 -0.036168348 0.055581138
0.01691569 -0.05293854 0.06089333 -0.040400468 -0.10344737 0.17599434 0.09637471 0.089095026
0.07402539 -0.006592895 -0.023660216 0.16890474 0.012489996 0.055883974 -0.01700776 0.0037129272
-0.04591942 -0.09704418 0.16508928 -0.09248676 -0.033713054 0.17457424 -0.021319909 0.08215327
0.1311757 0.035398062 0.16562383 -0.09846174 0.30314285 0.03568547 0.04878885 -0.06510518
0.0023207765 0.05913812 0.18782337 -0.00059457414 -0.15121569 -0.018870346 0.13434649 -0.11316364
0.1530237 0.09981861 -0.06823494 0.015349616 -0.09419934 -0.024561888 -0.006764543 -0.067614384
-0.12445848 -0.058386073 0.06622381 0.06007988 0.04111737 0.053282637 0.10576061 -0.057516407
-0.0006758605 0.037856024 -0.008300284 -0.06292213 0.25688905 -0.07264113 -0.04020573 -0.10005496
-0.09022688 -0.058851954 -0.031848926 -0.1558116 0.04259829 -0.009807889 -0.06870255 -0.0782261
-0.061840054 -0.005262112 0.039907183 0.08888585 0.088350974 -0.013561042 -0.057760812 -0.069227345
0.10477166 0.09562246 -0.04453865 0.10826935 0.07162515 -0.07539068 -0.114895985 0.14742328
0.037444502 0.09038152 0.11374212 0.041980565 0.032810573 -0.0032652216 -0.041161474 0.03610899
0.08977095 0.025875924 0.110550225 -0.0050503397 0.080987155 -0.0053594992 -0.124743015 0.058935117
0.0072548157 -0.036508758 0.044101186 0.10281354 -0.022599319 -0.027338559 -0.06508877 0.012881903
-0.056711722 0.12061837 0.09374794 -0.049122773 -0.038894325 0.07962854 -0.016876629 -0.0122960135
-0.06684178 0.11161476 -0.061755147 -0.062001117 0.013761624 -0.032364737 0.09135899 -0.03248162
0.00091641437 0.082547076 0.017235762 0.039540563 0.12003532 -0.025467096 -0.018950345 -0.018838106
-0.108839035 0.05581063 0.0921925 0.07411226 -0.081877016 -0.042723753 0.026662914 0.07263183
00000000: a0c4 51bb e7f4 1d3e dcdc a6bd 510f 42bd
00000010: 47cc 97bd 0cd2 eebd 14d4 d5bd 4518 76bd
00000020: 80c8 62bd a810 fb3d f5e4 fdbb 2c12 e83d
00000030: 1689 263e 4a1b af3c 3604 8a3d 7dab 0d3d
00000040: 4268 a5bc 53eb 8ebd 345b 173d a89a a23d
00000050: 63fc 243d eff9 2b3d fcbc e2bd 719a b8bd
00000060: 18e4 2d3e 2128 e6bc fc03 9bbc 1932 e73c
00000070: ba2d 0a3c 0bb3 3b3e c077 d4bc 4dad e7bd
00000080: 9fbd ba3d 1ad8 40bc 1eb7 9b3d 7737 1fbd
00000090: bb63 993d cf77 9cbd 6520 743d 9948 9dbb
000000a0: d9ef ab3d 726a 143e b929 653d 1e05 9cbd
000000b0: a85a b4bd eae5 0ebd 4325 14bd 0ca9 633d
000000c0: c692 8a3c 15d6 58bd 496b 793d f67a 25bd
000000d0: 37dc d3bd dc37 343e 1b60 c53d 7477 b63d
000000e0: a09a 973d 3609 d8bb 12d3 c1bc 5df5 2c3e
000000f0: d7a2 4c3c 98e6 643d dc53 8bbc 9554 733b
00000100: 0016 3cbd 19bf c6bd 2a0d 293e b369 bdbd
00000110: b316 0abd 97c3 323e 17a7 aebc f93f a83d
00000120: ec52 063e 8ffd 103d 4b99 293e 4fa6 c9bd
00000130: 8a35 9b3e ed2a 123d d1d6 473d dd55 85bd
00000140: 2b18 183b d03a 723d c554 403e 32dd 1bba
00000150: 49d8 1abe fc95 9abc 2092 093e 57c2 e7bd
00000160: 3fb2 1c3e b36d cc3d c3be 8bbd f57c 7b3c
00000170: 95eb c0bd 0336 c9bc 19a9 ddbb 6979 8abd
00000180: 16e4 febd 3c26 6fbd 59a0 873d 5216 763d
00000190: b06a 283d e53e 5a3d 0599 d83d 5396 6bbd
000001a0: 3b2c 31ba eb0e 1b3d eafd 07bc 51dd 80bd
000001b0: f686 833e dfc4 94bd c3ae 24bd 9de9 ccbd
000001c0: dfc8 b8bd bf0e 71bd 0574 02bd 138d 1fbe
000001d0: 8b7b 2e3d 45b1 20bc ecb3 8cbd 0135 a0bd
000001e0: ff4b 7dbd cb6d acbb b775 233d c909 b63d
000001f0: 5bf1 b43d 222f 5ebc 9a96 6cbd 11c7 8dbd
00000200: 8692 d63d b5d5 c33d 296e 36bd 52bc dd3d
00000210: 35b0 923d 6e66 9abd 964e ebbd 21f6 163e
00000220: 685f 193d f219 b93d a1f1 e83d d0f3 2b3d
00000230: 6164 063d 54fd 55bb ef98 28bd 05e7 133d
00000240: d5d9 b73d bff9 d33c 2868 e23d 527d a5bb
00000250: 98dc a53d bd9e afbb 4479 ffbd f365 713d
00000260: ceb9 ed3b 358a 15bd 72a3 343d e88f d23d
00000270: 3522 b9bc 1df5 dfbc 434d 85bd 9e0e 533c
00000280: 8d4a 68bd c406 f73d ecfe bf3d f634 49bd
00000290: a84f 1fbd 4a14 a33d db40 8abc 3875 49bc
000002a0: 58e4 88bd 4796 e43d f7f2 7cbd e2f4 7dbd
000002b0: 6f78 613c e390 04bd 6c1a bb3d 720b 05bd
000002c0: 873b 703a 710e a93d 0332 8d3c 49f5 213d
000002d0: 14d5 f53d 5fa0 d0bc c13d 9bbc 5f52 9abc
000002e0: 00e7 debd b099 643d 6ccf bc3d 2bc8 973d
000002f0: 23af a7bd 1aff 2ebd 2f6c da3c ffbf 943d

bias_hh_l0 f4 [192]
0.0790972 0.14954503 0.039144013 0.040893797 0.10166352 0.044516724 -0.019629557 0.08817384
0.07641547 -0.04896158 -0.0012450542 0.15315327 -0.054727323 -0.16299352 0.07829545 -0.004346704
0.12696101 0.02158989 0.1099319 0.120010816 0.068697065 0.023261975 0.021285173 -0.08189652
0.0719656 -0.088069 0.043338496 -0.17109141 0.037768647 0.024609683 0.05158127 -0.059308074
0.051589634 -0.030993687 0.03802814 -0.02555127 -0.13200143 -0.027164709 -0.08537544 0.08891015
-0.027498972 -0.050214503 0.038656283 -0.019078217 0.041563544 0.02788755 0.019099813 -0.07748287
-0.023214918 -0.07327253 0.09042525 -0.05710185 -0.029648198 0.21448083 0.12898932 -0.031397127
-0.08779091 -0.020803565 0.04730695 0.008832305 0.04419415 0.04106744 0.03624283 -0.024006823
-0.20942183 -0.033743527 0.054053497 -0.02218042 -0.02045352 0.025414566 -0.017274046 -0.13459614
0.116994105 0.120199256 0.12336751 0.076311715 0.13834353 0.030124545 -0.056090724 0.0478499
0.022164937 0.050512604 0.059227444 0.1783846 -0.081430264 -0.051504496 0.00039544713 0.04816149
0.14129415 -0.08887359 -0.16088189 -0.09476163 0.10755607 -0.14097889 0.097590536 0.10788155
0.056681413 0.03927198 0.034917295 -0.053367402 -0.036664374 0.004648885 -0.05160455 0.06516799
0.030405449 -0.053571947 0.09859165 0.031058991 0.2344204 -0.053990424 -0.065900885 0.038620133
-0.03805956 -0.0051791873 -0.004254741 0.025402771 0.055587944 -0.13316306 0.12932408 0.010821689
0.07594412 0.04851414 -0.00756235 -0.09638069 0.03304261 0.18251698 -0.01409356 -0.080550134
-0.0075871083 0.02378896 0.1076306 0.088245966 -0.004957828 0.020661002 -0.09384556 0.015624455
-0.08082151 0.11820455 0.09656184 0.005805201 0.046009127 -0.031375196 -0.14842427 -0.12349378
-0.043715358 -0.11688002 0.027487693 -0.018487478 -0.019917464 0.0808513 -0.01748581 0.07570123
-0.14258946 0.04938994 -0.14880395 -0.08021458 -0.10498174 -0.039210677 0.04894338 -0.095382966
-0.103474155 -0.11792233 0.103354186 -0.01512136 0.08823926 0.09413911 -0.103885986 -0.027899878
-0.027745137 0.13231924 -0.025913062 0.050999425 0.07041047 0.085320204 0.03946003 0.061664045
-0.021415198 0.0045361496 -0.037144914 0.13098942 0.12574954 0.010883189 -0.09154147 -0.014242874
0.035440937 0.08334229 -0.10486762 -0.13968499 -0.06649084 0.016366791 -0.028376417 -0.111230135
00000000: b6fd a13d 5522 193e 7955 203d 4180 273d
00000010: f734 d03d 2b57 363d 2ace a0bc 7c94 b43d
00000020: b77f 9c3d f08b 48bd 1631 a3ba 36d4 1c3e
00000030: c229 60bd c6e7 26be 5d59 a03d cc6e 8ebb
00000040: 1102 023e 48dd b03c fa23 e13d 3bc8 f53d
00000050: 0cb1 8c3d e68f be3c 3e5e ae3c 5db9 a7bd
00000060: b362 933d 855d b4bd b583 313d 9632 2fbe
00000070: 4cb3 1a3d 3f9a c93c e246 533d 06ed 72bd
00000080: a74f 533d 79e6 fdbc 65c3 1b3d e650 d1bc
00000090: 622b 07be 8688 debc 52d9 aebd 8616 b63d
000000a0: 8645 e1bc b9ad 4dbd 0d56 1e3d ec49 9cbc
000000b0: 893e 2a3d 6e74 e43c 3677 9c3c 57af 9ebd
000000c0: 362d bebc e90f 96bd e030 b93d a1e3 69bd
000000d0: c7e0 f2bc dda0 5b3e c715 043e 469a 00bd
000000e0: b8cb b3bd 3d6c aabc efc4 413d 5fb5 103c
000000f0: ed04 353d 5536 283d 5d73 143d f5a9 c4bc
00000100: ad72 56be a736 0abd 3367 5d3d b6b3 b5bc
00000110: 248e a7bc 3532 d03c 4d82 8dbc 92d3 09be
00000120: 9b9a ef3d 072b f63d 1ba8 fc3d 5149 9c3d
00000130: eda9 0d3e c0c7 f63c 63bf 65bd 42fe 433d
00000140: 3e93 b53c 4ee6 4e3d 7a98 723d 74aa 363e
00000150: e9c4 a6bd 61f6 52bd 0454 cf39 fc44 453d
00000160: 6aaf 103e 5b03 b6bd 39be 24be 6312 c2bd
00000170: 5b46 dc3d c55c 10be 8cdd c73d 01f1 dc3d
00000180: c52a 683d a8db 203d 7005 0f3d c797 5abd
00000190: 622d 16bd ad55 983b 4b5f 53bd cc76 853d
000001a0: d914 f93c 426e 5bbd 6bea c93d 6d6f fe3c
000001b0: e70b 703e 1025 5dbd 0bf7 86bd 2530 1e3d
000001c0: 57e4 1bbd 2cb6 a9bb 5b6b 8bbb 7919 d03c
000001d0: 2fb0 633d e65b 08be 886d 043e 744d 313c
000001e0: 9788 9b3d c3b6 463d 97cd f7bb 3d63 c5bd
000001f0: b057 073d bbe5 3a3e ade8 66bc 78f7 a4bd
00000200: 479d f8bb 11e1 c23c 6f6d dc3d 4dba b43d
00000210: 4775 a2bb 4341 a93c 1a32 c0bd b7fd 7f3c
00000220: bf85 a5bd 3a15 f23d 37c2 c53d 8e39 be3b
00000230: 1174 3c3d 4783 00bd 88fc 17be 4fea fcbd
00000240: e00e 33bd cb5e efbd df2d e13c 0d73 97bc
00000250: f329 a3bc 5e95 a53d 673e 8fbc 3f09 9b3d
00000260: f902 12be 1b4d 4a3d 1060 18be 8b47 a4bd
00000270: ab00 d7bd 609b 20bd db78 483d 2558 c3bd
00000280: 42ea d3bd 4381 f1bd 5cab d33d 95bf 77bc
00000290: c9b6 b43d 01cc c03d 2dc2 d4bd 498e e4bc
000002a0: c549 e3bc b27e 073e a147 d4bc c6e4 503d
000002b0: 5d33 903d 5cbc ae3d d7a0 213d 7093 7c3d
000002c0: ed6e afbc fba3 943b 4425 18bd 1722 063e
000002d0: 7dc4 003e 674f 323c 187a bbbd f25a 69bc
000002e0: 842a 113d 5daf aa3d d6c4 d6bd 9509 0fbe
000002f0: 592c 88bd a613 863c a975 e8bc a0cc e3bd

weight_ih_l0_reverse f4 [192, 14]
0.12031264 -0.08684462 0.08372127 0.106295 0.097734325 0.009020225 0.10121509 -0.026697367
-0.015586924 0.065451354 -0.017341115 0.021330904 0.01161351 -0.02264371 0.15470639 -0.15161522
0.08664227 -0.029949764 -0.04415105 -0.005439739 0.082454205 0.0067270873 -0.017786125 0.029916221
-0.021423357 -0.079517506 0.06192207 -0.05185691 -0.010596873 -0.020172017 0.036994122 0.074810535
-0.09308858 -0.0052364306 -0.08377631 0.016699925 0.016833816 0.15230864 0.02440729 0.10727586
0.052673493 -0.001290538 -0.039057493 0.093896426 -0.061243445 0.07618907 -0.00677452 -0.060726654
-0.04868229 -0.06362724 -0.03315421 -0.08761793 0.036893975 -0.14214265 0.15711135 0.00063510693
0.0628681 0.07045888 0.09064441 0.1330135 -0.01419225 -0.10853091 -0.035588697 -0.0055224374
-0.014894224 0.0826324 0.1701824 0.026622606 0.011245825 -0.07995511 0.12230843 -0.05047357
-0.08773086 -0.02327248 -0.074129514 0.061832964 -0.057944234 -0.043003753 0.0029882607 0.0007209685
0.30252257 -0.14017843 -0.04358579 0.041841924 0.10362181 -0.12566552 -0.13260756 -0.0029994969
-0.03309983 -0.14552972 0.021752963 -0.038451653 -0.02098366 0.08249368 0.0497079 -0.09731567
0.030583916 0.10806469 -0.16850679 -0.010528538 0.012013786 -0.008156384 -0.06295431 0.023044843
-0.1532354 -0.01865857 -0.05718353 0.06464937 -0.11670998 -0.059950676 -0.06046058 0.16241124
0.08377156 -0.020875476 -0.07519053 0.27089322 -0.08006919 0.11405127 -0.043119214 -0.089656204
-0.032657776 -0.019675361 0.07668339 -0.03347618 0.11985218 0.06323845 -0.12030862 -0.029852709
0.07585523 -0.011722184 0.13766214 0.044940878 0.050521966 -0.04749423 0.1342104 0.09723085
-0.023090547 -0.16644394 0.09176561 0.12607686 -0.022354594 -0.021619126 -0.057096574 0.043157205
0.06512509 0.0014210545 -0.07236847 -0.090149805 -0.036826085 0.006778831 0.004117242 0.15837157
0.04423855 -0.14209914 0.08474062 -0.09472413 0.092854194 -0.0081416955 -0.031007769 -0.06663031
0.09387208 0.008504321 0.029676897 -0.00972173 0.052586176 -0.07566618 0.071865074 0.07233264
0.1674002 0.070699096 -0.09314341 0.06929171 -0.029354976 0.08789674 -0.073110625 -0.07242215
0.06955677 0.22869267 0.08587886 0.13560307 -0.07125205 -0.03604846 -0.074929886 0.17542522
0.21115693 0.17899562 -0.04669062 0.04822496 -0.019410377 0.026907206 0.034955755 0.10065065
0.032714993 0.039470326 0.05444249 -0.015044261 -0.054064643 -0.007079548 -0.06089615 -0.075611405
0.113855794 -0.066639885 -0.02431408 -0.009587125 0.06001406 0.25192133 0.040081482 -0.08714759
-0.07834277 -0.09604601 -0.05426352 0.0853582 0.13565314 0.06313151 -0.08691509 -0.09121826
-0.0022308053 -0.0017821449 -0.057402816 0.10824168 -0.11946672 -0.06489412 -0.10948905 0.033472273
0.097137325 0.11791492 0.0022730706 -0.053948198 -0.06486682 0.061621413 0.12788595 0.07884127
0.023988845 -0.08928995 0.08064832 -0.23673515 -0.11867116 -0.13597855 -0.2775889 0.034570474
-0.14354178 -0.036994934 0.041709773 0.014430909 -0.07375418 0.15914564 -0.042854395 -0.061323587
0.049571216 -0.04101081 -0.060476817 -0.09881303 -0.0685365 0.12018695 0.03513977 0.1858893
00000000: 7966 f63d 98db b1bd 0f76 ab3d 31b1 d93d
00000010: ef28 c83d 91c9 133c db49 cf3d 70b4 dabc
00000020: 4c60 7fbc 5c0b 863d f40e 8ebc 26be ae3c
00000030: 9746 3e3c 4d7f b9bc 5a6b 1e3e 0541 1bbe
00000040: 8171 b13d 3559 f5bc bbd7 34bd d73f b2bb
00000050: c0dd a83d e66e dc3b 35b4 91bc dd12 f53c
00000060: 0980 afbc 13da a2bd ffa1 7d3d e967 54bd
00000070: 829e 2dbc c93f a5bc 2687 173d 4436 993d
00000080: 3aa5 bebd 5d96 abbb ea92 abbd 48ce 883c
00000090: 12e7 893c ccf6 1b3e ccf1 c73c 72b3 db3d
000000a0: 29c0 573d 4527 a9ba c0fa 1fbd c54c c03d
000000b0: 68da 7abd 0409 9c3d cbfc ddbb 83bc 78bd
000000c0: 1567 47bd 004f 82bd b5cc 07bd 0771 b3bd
000000d0: 231e 173d d88d 11be cce1 203e 4e7d 263a
000000e0: fec0 803d bf4c 903d c7a3 b93d b134 083e
000000f0: 9c86 68bc 7445 debd 74c5 11bd 90f5 b4bb
00000100: e706 74bc 2d3b a93d 4c44 2e3e a717 da3c
00000110: 6940 383c 81bf a3bd d87c fa3d 60bd 4ebd
00000120: 3dac b3bd eea5 bebc 37d1 97bd 9044 7d3d
00000130: ef56 6dbd b424 30bd b2d6 433b 61ff 3c3a
00000140: 3de4 9a3e ef8a 0fbe 0387 32bd 7062 2b3d
00000150: ac37 d43d 76ae 00be 47ca 07be 3593 44bb
00000160: b093 07bd be05 15be 4533 b23c 7b7f 1dbd
00000170: ede5 abbc 72f2 a83d 839a 4b3d 704d c7bd
00000180: 1f8b fa3c 0551 dd3d 0b8d 2cbe e47f 2cbc
00000190: 78d5 443c 5ba2 05bc 30ee 80bd 8ac8 bc3c
000001a0: bee9 1cbe dbd9 98bc 4739 6abd e466 843d
000001b0: a405 efbd d78e 75bd 83a5 77bd 224f 263e
000001c0: 6c90 ab3d 0c03 abbc 7efd 99bd 84b2 8a3e
000001d0: 51fb a3bd b693 e93d c69d 30bd ac9d b7bd
000001e0: 29c4 05bd 392e a1bc 2e0c 9d3d 521e 09bd
000001f0: 0f75 f53d 2983 813d 5e64 f6bd ab8d f4bc
00000200: fd59 9b3d 670e 40bc 4ef7 0c3e ed13 383d
00000210: 1ff0 4e3d 4f89 42bd 736e 093e f820 c73d
00000220: 6328 bdbc 4870 2abe 9cef bb3d 4b1a 013e
00000230: fb20 b7bc 981a b1bc 19de 69bd 9cc5 303d
00000240: 4e60 853d ad42 ba3a ec35 94bd 76a0 b8bd
00000250: f3d6 16bd f520 de3b eee9 863b 282c 223e
00000260: 7b33 353d 7082 11be 7d8c ad3d bafe c1bd
00000270: 572a be3d bf64 05bc 0104 febc 7975 88bd
00000280: 0140 c03d b555 0b3c f71c f33c e447 1fbc
00000290: 9a64 573d dff6 9abd ff2d 933d 2323 943d
000002a0: f56a 2b3e b0ca 903d f9c1 bebd d0e8 8d3d
000002b0: d979 f0bc 3503 b43d 06bb 95bd 1052 94bd
000002c0: c873 8e3d 692e 6a3e 41e1 af3d 88db 0a3e
000002d0: 98ec 91bd 8da7 13bd d774 99bd aba2 333e
000002e0: 8639 583e a14a 373e aa3e 3fbd 8987 453d
000002f0: 8302 9fbc 806c dc3c c42d 0f3d ee21 ce3d
00000300: 2800 063d a3ab 213d 17ff 5e3d 347c 76bc
00000310: e372 5dbd 8efb e7bb 3e6e 79bd 27da 9abd
00000320: 3a2d e93d 7e7a 88bd 522e c7bc 5113 1dbc
00000330: 4ed1 753d d5fb 803e 7b2c 243d 707a b2bd
00000340: 2d72 a0bd c5b3 c4bd 6d43 5ebd 48d0 ae3d
00000350: a8e8 0a3e 184b 813d 8a00 b2bd a4d0 babd
00000360: b432 12bb dc96 e9ba 371f 6bbd d0ad dd3d
00000370: f8aa f4bd 35e7 84bd cc3b e0bd 391a 093d
00000380: efef c63d 617d f13d ccf7 143b c9f8 5cbd
00000390: e5d8 84bd bc66 7c3d 89f4 023e 8877 a13d
000003a0: 4184 c43c a6dd b6bd f22a a53d b36a 72be
000003b0: dd09 f3bd f63d 0bbe 2220 8ebe c599 0d3d
000003c0: 9efc 12be 0088 17bd ded7 2a3d 9f6f 6c3c
000003d0: 6e0c 97bd 13f7 223e 1788 2fbd 712e 7bbd
000003e0: 300b 4b3d f3fa 27bd 8ab6 77bd 7c5e cabd
000003f0: dd5c 8cbd 9324 f63d b8ee 0f3d c459 3e3e

weight_hh_l0_reverse f4 [192, 64]
-0.009266725 -0.05385681 -0.032456156 -0.07989904 -0.08252156 0.09719693 0.045441687 -0.042167053
-0.07067363 -0.11715437 0.006087056 0.10011268 -0.044925246 -0.061377622 -0.013119296 -0.035511225
0.027870988 0.06299041 0.060320724 -0.022200368 -9.822324e-05 -0.019001253 -0.003521869 -0.10041112
-0.06972449 -0.00080687995 -0.09945022 0.049564138 -0.005963284 -0.13204347 0.0770609 0.07741956
0.11843801 -0.12043613 0.05193541 -0.14172992 -0.15627639 0.027019808 0.025981776 0.022161158
7.6436256e-05 -0.10038326 0.01751063 -0.011021075 -0.18405 -0.056029193 -0.09052357 0.13372628
-0.03066422 0.0870102 -0.073348895 0.016178869 0.06656575 -0.098697506 -0.007692241 -0.06529773
0.10891391 -0.11184907 0.040751047 0.07595593 0.038149524 -0.124115475 0.006971845 -0.19712545
0.097488284 -0.06400887 0.08395876 0.09657742 0.038113076 -0.039462898 0.059296947 0.014541046
0.09283303 -0.12894505 -0.061537977 -0.097716 -0.0030469473 0.029627172 0.101506956 -0.039846983
0.09966814 0.0045960853 0.17697312 -0.055653833 0.00797919 0.08038298 -0.025794467 0.104460895
0.027956082 -0.0023943249 -0.07309446 -0.03984495 -0.09688582 -0.0059060757 -0.02445799 0.06184574
-0.059977826 0.08691808 0.16097434 -0.08490669 -0.16866475 0.086349845 -0.0772706 -0.10632916
0.10786282 -0.16649318 0.0056706592 0.08835516 -0.018036569 -0.083539784 0.042979635 0.065751635
0.039158143 0.02940043 0.025512854 0.018961878 -0.07447677 -0.040177327 -0.057945784 -0.10712175
0.08009179 0.013448746 -0.100598045 0.07225437 0.07034917 -0.09688907 -0.08614366 -0.08050601
-0.05026955 -0.16593206 -0.021692818 0.029882006 -0.083998315 -0.20571722 0.02101528 -0.10662265
-0.041273504 0.070974834 -0.19214119 0.14035162 -0.104988426 -0.045090932 -0.04708204 0.0058587925
0.028542886 -0.08507973 -0.010208469 -0.052059777 -0.08951046 -0.02699963 -0.07917459 -0.051803052
0.0026762472 0.0047089155 0.096606985 0.27579692 0.033896215 0.1600728 0.035944667 0.283007
-0.056167737 0.011623239 0.07850888 0.00039346286 0.04576007 0.07004214 0.06056 0.17743094
0.09184067 0.023814907 -0.012968831 0.0378509 -0.024200907 0.029420983 0.03406334 0.032730244
-0.18753234 0.19804285 0.17202823 0.046166107 0.11581025 -0.12320104 0.23774573 0.029986817
0.1350013 -0.013442382 0.14387164 0.103201106 -0.043859683 -0.21764784 0.1738593 -0.11906449
-0.113235734 0.10017147 -0.20471002 0.038990837 0.16496357 -0.09768259 -0.06444277 -0.20417038
0.07867596 0.033450242 0.01847377 -0.05315218 0.1370181 0.023057165 -0.018459208 -0.009742245
-0.11301276 0.11528162 0.042360537 0.037072677 0.019075938 0.00059641275 -0.020925287 0.13947406
-0.051240407 0.11901741 -0.07247915 -0.2411981 0.061328962 0.11407208 0.09869489 0.06358007
-0.05354354 -0.07207507 -0.089504115 -0.10517837 0.14008226 0.0630173 0.038690977 0.054668896
-0.051595256 0.17864807 0.098188415 0.087002955 -0.08575945 0.2593775 -0.08766149 0.040062487
0.10752796 0.043120686 0.120089784 -0.00756988 0.010986713 -0.02231528 -0.17281748 -0.12775622
-0.028319037 -0.0032135516 -0.1014657 -0.15479067 0.040020954 -0.056527257 -0.049460236 0.12558013
00000000: 76d3 17bc f598 5cbd bff0 04bd 1ca2 a3bd
00000010: 1001 a9bd 2f0f c73d 1021 3a3d 5cb7 2cbd
00000020: 56bd 90bd a1ee efbd ed75 c73b e007 cd3d
00000030: 8903 38bd 1a67 7bbd 51f2 56bc 3874 11bd
00000040: b351 e43c 1e01 813d dd12 773d 8cdd b5bc
00000050: 33fd cdb8 84a8 9bbc 28cf 66bb 58a4 cdbd
00000060: b7cb 8ebd cc84 53ba 8fac cbbd c403 4b3d
00000070: a767 c3bb 6736 07be 1bd2 9d3d 258e 9e3d
00000080: a18f f23d 38a7 f6bd 39ba 543d a621 11be
00000090: eb06 20be a558 dd3c bcd7 d43c 518b b53c
000000a0: 674c a038 bd95 cdbd 7472 8f3c bd91 34bc
000000b0: 9a77 3cbe de7e 65bd 6c64 b9bd 8bef 083e
000000c0: 8833 fbbc 6732 b23d f237 96bd 8c89 843c
000000d0: a053 883d eb21 cabd 320f fcbb d1ba 85bd
000000e0: 420e df3d 2011 e5bd 92ea 263d c88e 9b3d
000000f0: ad42 1c3d 4130 febd 1374 e43b 41db 49be
00000100: f0a7 c73d 1517 83bd 92f2 ab3d 62ca c53d
00000110: 751c 1c3d d9a3 21bd 5be1 723d 913d 6e3c
00000120: 3e1f be3d 2c0a 04be 3f0f 7cbd 541f c8bd
00000130: 4baf 47bb afb4 f23c e1e2 cf3d 9736 23bd
00000140: cf1e cc3d c29a 963b 7138 353e 46f5 63bd
00000150: 26bb 023c d59f a43d eb4e d3bc 98ef d53d
00000160: 2704 e53c 1bea 1cbb 8cb2 95bd 7534 23bd
00000170: 136c c6bd c187 c1bb 1f5c c8bc f551 7d3d
00000180: 4fab 75bd 1b02 b23d 75d6 243e 8fe3 adbd
00000190: 74b6 2cbe 30d8 b03d 0c40 9ebd 1ac3 d9bd
000001a0: 2fe7 dc3d 307d 2abe f0d0 b93b 8df3 b43d
000001b0: 6dc1 93bc e816 abbd 6a0b 303d cba8 863d
000001c0: 4a64 203d 2cd9 f03c 5500 d13c f155 9b3c
000001d0: 4787 98bd fb90 24bd 8f58 6dbd a662 dbbd
000001e0: 2a07 a43d 2158 5c3c 5906 cebd 19fa 933d
000001f0: 3a13 903d c76d c6bd 166c b0bd 56e0 a4bd
00000200: 72e7 4dbd 18ea 29be 23b5 b1bc 1ccb f43c
00000210: 4f07 acbd 89a7 52be 3d28 ac3c fa5c dabd
00000220: 680e 29bd 415b 913d a9c0 44be 56b8 0f3e
00000230: 2c04 d7bd 45b1 38bd 19d9 40bd 1dfb bf3b
00000240: c5d2 e93c 483e aebd 6c41 27bc a23c 55bd
00000250: 4351 b7bd 542e ddbc 4a26 a2bd 702f 54bd
00000260: fa63 2f3b 3f4d 9a3b e2d9 c53d 4135 8d3e
00000270: c2d6 0a3d 20ea 233e b73a 133d 4be6 903e
00000280: 2410 66bd 666f 3e3c 44c9 a03d b149 ce39
00000290: e96e 3b3d 4172 8f3d c30d 783d 75b0 353e
000002a0: f616 bc3d 7b17 c33c 387b 54bc 8c09 1b3d
000002b0: fb40 c6bc 4604 f13c 0086 0b3d 2610 063d
000002c0: 7a08 40be bfcb 4a3e 2b28 303e ac18 3d3d
000002d0: ed2d ed3d d450 fcbd 9e73 733e eaa6 f53c
000002e0: c83d 0a3e 703d 5cbc 1653 133e 1a5b d33d
000002f0: 36a6 33bd 13df 5ebe 2c08 323e 15d8 f3bd
00000300: 23e8 e7bd b326 cd3d 819f 51be dbb4 1f3d
00000310: 36ec 283e cf0d c8bd 92fa 83bd 0a12 51be
00000320: dd20 a13d 1f03 093d 4e56 973c 1ab6 59bd
00000330: 794e 0c3e 61e2 bc3c c437 97bc f09d 1fbc
00000340: 3c73 e7bd c518 ec3d 3e82 2d3d 85d9 173d
00000350: 2445 9c3c 9558 1c3a 826b abbc 4ad2 0e3e
00000360: 76e1 51bd 66bf f33d f36f 94bd a2fc 76be
00000370: 1434 7b3d 9f9e e93d 8c20 ca3d 4536 823d
00000380: 7950 5bbd 189c 93bd ef4d b7bd c267 d7bd
00000390: b971 0f3e 370f 813d 6e7a 1e3d 7eec 5f3d
000003a0: 8c55 53bd 85ef 363e 0217 c93d 9b2e b23d
000003b0: a7a2 afbd 21cd 843e de87 b3bd 9018 243d
000003c0: 9e37 dc3d 519f 303d a2f1 f53d c20c f8bb
000003d0: 9d01 343c 89ce b6bc 11f7 30be 87d2 02be
000003e0: 53fd e7bc 739a 52bb 40cd cfbd 7281 1ebe
000003f0: 03ed 233d 2089 67bd d196 4abd 1498 003e

bias_ih_l0_reverse f4 [192]
-0.026395975 0.04577128 0.061862666 -0.13058555 0.109448954 0.087712936 0.0074848803 -0.016520748
-0.043000836 -0.09312891 -0.09011635 0.043441776 0.06905481 -0.006936772 0.095971845 -0.08486738
-0.06833567 0.2924099 -0.003315204 0.0738583 -0.09323627 -0.078407675 -0.10215371 -0.00987814
0.15123099 -0.07021958 0.03971665 0.10948597 -0.06803931 0.11823445 0.040933967 0.22715
0.015021308 0.051366437 0.04428512 -0.10732745 0.01153411 0.08457022 -0.03596836 -0.13508256
0.11920319 0.05329003 0.02036563 0.09336693 0.10972759 -0.008977337 -0.054819316 0.13641864
-0.075375535 -0.019882929 -0.055659216 -0.011656705 0.08989626 -0.10351532 0.017281 -0.11304523
-0.0279362 -0.027030742 0.2082016 0.007575477 -0.015052908 0.023941442 0.07958482 0.094824165
-0.12893613 -0.08240031 -0.00434796 0.087575026 -0.23165487 0.044898335 -0.17458825 0.012470561
-0.05525528 0.049472544 0.052805483 0.028048176 0.0699049 -0.093555175 0.046898738 0.005028121
-0.0767449 -0.03674213 0.034713034 -0.12999314 -0.13186534 0.037487034 -0.03694625 -0.16266757
0.005027533 0.15357752 0.059060592 -0.05675856 -0.050055604 0.08267534 0.07115095 -0.14379947
-0.02916298 0.01976678 -0.0044036913 -0.027714685 0.054300737 0.06721572 -0.028517092 -0.12246348
0.038355127 -0.084008366 0.024954183 0.005459023 -0.037918147 0.10881701 -0.0051927348 -0.008895938
-0.07287099 -0.007992422 -0.006911749 0.124671884 -0.030230891 0.06212653 -0.2594699 0.09951288
0.116372235 -0.13019994 0.07588441 -0.14649409 -0.15778928 0.017374657 0.0036444515 0.055702362
0.033955 0.10263706 0.06319019 0.047801934 0.009881484 0.115383625 0.12516852 0.1117993
-0.0972936 -0.07864666 0.082126185 0.087905854 -0.06752151 0.0056345696 0.04621508 0.06774559
-0.0017076151 -0.038566746 0.116432995 0.10879011 0.0745623 0.0374029 0.0877331 -0.113598175
-0.055471193 -0.0072104465 0.0228772 0.038607664 0.05416954 0.09270006 -0.055018958 0.06271455
-0.104709856 -0.039313413 -0.009750945 0.054350737 -0.08896821 -0.05369296 0.13319556 0.024043895
0.019203473 -0.04604737 -0.08609546 -0.10430381 0.094913684 -0.06111706 -0.058649234 -0.054167457
-0.0144268125 -0.00905719 -0.12322117 0.11965239 -0.0076157628 -0.03970141 0.11014938 0.06779806
0.04670632 0.04254705 0.037858263 0.12846212 0.098699816 0.06840955 0.14666706 -0.11540591
00000000: 5f3c d8bc aa7a 3b3d b563 7d3d 38b8 05be
00000010: c626 e03d d7a2 b33d ba43 f53b 8556 87bc
00000020: a521 30bd 5fba bebd ec8e b8bd 01f0 313d
00000030: 9c6c 8d3d dc4d e3bb e38c c43d f3ce adbd
00000040: 92f3 8bbd c0b6 953e e543 59bb 0543 973d
00000050: a8f2 bebd 3494 a0bd f735 d1bd ecd7 21bc
00000060: 4cdc 1a3e 48cf 8fbd edad 223d 2e3a e03d
00000070: 3258 8bbd e724 f23d 60aa 273d 029a 683e
00000080: ef1b 763c 9d65 523d 5064 353d 7ece dbbd
00000090: 90f9 3c3c 2733 ad3d 8f53 13bd 1553 0abe
000000a0: cd20 f43d a646 5a3d d2d5 a63c 2937 bf3d
000000b0: dcb8 e03d ae15 13bc 388a 60bd 54b1 0b3e
000000c0: 7d5e 9abd 86e1 a2bc ebfa 63bd c4fb 3ebc
000000d0: 881b b83d d7ff d3bd e290 8d3c 4284 e7bd
000000e0: 75da e4bc 936f ddbc cd32 553e b53b f83b
000000f0: 79a0 76bc d820 c43c 5efd a23d 2c33 c23d
00000100: d507 04be 7ec1 a8bd 5579 8ebb 895a b33d
00000110: ef36 6dbe 51e7 373d 43c7 32be 5351 4c3c
00000120: 5c53 62bd b9a3 4a3d 904a 583d 4ac5 e53c
00000130: 4d2a 8f3d db99 bfbd e418 403d f0c2 a43b
00000140: 6e2c 9dbd ea7e 16bd 412f 0e3d ec1c 05be
00000150: b507 07be 018c 193d f354 17bd 5492 26be
00000160: 01be a43b 6d43 1d3e 85e9 713d aa7b 68bd
00000170: 1b07 4dbd b051 a93d 97b7 913d 2b40 13be
00000180: 34e7 eebc f1ed a13c d74c 90bb e809 e3bc
00000190: 736a 5e3d 65a8 893d ad9c e9bc 22ce fabd
000001a0: 441a 1d3d 940c acbd b76c cc3c 9be1 b23b
000001b0: 0f50 1bbd 74db de3d d127 aabb 45c0 11bc
000001c0: 633d 95bd a6f2 02bc f47b e2bb f953 ff3d
000001d0: c6a6 f7bc 6378 7e3d 3dd9 84be 69cd cb3d
000001e0: 9154 ee3d 2253 05be 4969 9b3d 8c02 16be
000001f0: 8393 21be 4c55 8e3c c0d7 6e3b 2928 643d
00000200: 6614 0b3d 6133 d23d dc69 813d f6cb 433d
00000210: f3e5 213c 404e ec3d 2d2c 003e 08f7 e43d
00000220: de41 c7bd 8011 a1bd c631 a83d fc07 b43d
00000230: b848 8abd 32a2 b83b 064c 3d3d 33be 8a3d
00000240: 0ed2 dfba 2af8 1dbd 6c74 ee3d 59cd de3d
00000250: 1fb4 983d c933 193d 69ad b33d 29a6 e8bd
00000260: c335 63bd 9c45 ecbb f768 bb3c 1223 1e3d
00000270: e1e0 5d3d 87d9 bd3d 8f5b 61bd 7c70 803d
00000280: 1f72 d6bd 1a07 21bd 6dc2 1fbc e19e 5e3d
00000290: f734 b6bd 26ed 5bbd 6b64 083e b4f7 c43c
000002a0: 9a50 9d3c 2b9c 3cbd d152 b0bd 3c9d d5bd
000002b0: 1b62 c23d e255 7abd 2e3a 70bd b2de 5dbd
000002c0: 705e 6cbc 9c64 14bc 615b fcbd 500c f53d
000002d0: a68d f9bb f29d 22bd 0096 e13d b6d9 8a3d
000002e0: 204f 3f3d d145 2e3d 4411 1b3d 938b 033e
000002f0: 2123 ca3d 4e1a 8c3d e42f 163e ef59 ecbd

bias_hh_l0_reverse f4 [192]
0.019028971 -0.04498547 0.15308309 -0.117845155 -0.054299064 0.15355735 0.025323318 -0.10023342
0.053319786 0.0028871053 -0.00077585276 -0.043375265 0.08563028 -0.11602987 0.080517836 0.086846374
-0.040494803 0.13375492 -0.114997424 -0.023995338 0.00864579 0.12775132 -0.086975105 0.1836809
0.20205617 -0.055905953 0.08637825 -0.05132197 0.024252709 0.015638985 0.039278787 0.24758217
0.06150215 0.062295355 -0.0071092807 -0.033135805 0.072825566 0.14101192 0.0709112 0.04240546
-0.09537635 0.09728249 0.06171935 0.08751522 0.0886778 0.09262163 0.052956074 0.07019238
-0.10548399 0.15396933 -0.11456592 -0.0070907506 0.082235634 -0.04450269 0.12976445 -0.059562765
0.07430698 0.018862972 0.11029619 -0.070656 -0.062159598 0.14121722 0.07499257 0.08385774
-0.099065155 0.09378876 0.052371018 0.10147569 -0.025426457 0.13807757 -0.13153517 -0.075400054
0.05281897 -0.07677759 0.10525483 -0.011834472 -0.09846234 -0.11797521 -0.05676355 0.045579713
-0.11248643 -0.09959189 -0.032184944 -0.25885504 -0.0040756455 -0.033923782 0.0018225835 -0.1684964
-0.11549775 -0.060034573 0.022859532 0.016541537 0.037962444 -0.01621125 0.013733908 0.030933239
0.14378297 -0.08100288 0.14081345 0.006818151 0.08444345 -0.029176995 0.009340569 0.07957332
-0.060509633 -0.034073014 -0.05032058 0.10514395 0.06216553 -0.0057027303 0.009885583 -0.12080487
-0.025998047 -0.030517636 0.06955016 0.055710062 -0.07187272 0.010359294 -0.26043403 0.04603913
-0.06679089 -0.1071003 -0.079774395 -0.07904592 -0.09583942 -0.19157593 0.0050852555 0.008759972
0.03653173 -0.123261586 -0.005563495 -0.04061467 -0.041966483 0.013260963 -0.0029494418 0.09835038
0.11432576 0.047200598 0.040788364 0.109436 -0.004144939 -0.014682939 0.115134865 0.1285136
0.08968479 -0.17859136 0.011242864 -0.046187144 0.0800267 -0.10870137 -0.06232908 -0.052315153
0.15923424 -0.04595544 -0.053475566 -0.043114636 -0.06771612 0.062173735 -0.054084126 0.021427702
-0.11703904 0.031318154 0.05946019 -0.08568958 0.046486996 0.08630094 0.056174856 0.03003437
0.106193475 0.10902752 -0.07874693 -0.1242077 -0.11253538 -0.11268474 0.025607772 -0.020666463
0.0289228 0.05443708 0.094458744 0.08056218 0.089730546 -0.010175037 0.042092584 0.06602571
0.12525484 -0.09468731 0.1578641 -0.075729094 0.08615305 -0.10615269 0.053838458 0.035152443
00000000: a5e2 9b3c af42 38bd d0c1 1c3e cd58 f1bd
00000010: b268 5ebd 233e 1d3e d972 cf3c 2e47 cdbd
00000020: d965 5a3d 9735 3d3b 9962 4bba 43aa 31bd
00000030: ee5e af3d 12a1 edbd 89e6 a43d 83dc b13d
00000040: e1dd 25bd 0df7 083e c583 ebbd df91 c4bc
00000050: 12a7 0d3c 3ed1 023e 0120 b2bd d916 3c3e
00000060: d0e7 4e3e a4fd 64bd 14e7 b03d fc36 52bd
00000070: 9ead c63c 541d 803c cbe2 203d 2e86 7d3e
00000080: aee9 7b3d 6a29 7f3d f8f4 e8bb 69b9 07bd
00000090: 9225 953d 6e65 103e e439 913d 59b1 2d3d
000000a0: ad54 c3bd 0b3c c73d 6ecd 7c3d 2e3b b33d
000000b0: b59c b53d 69b0 bd3d 78e8 583d 06c1 8f3d
000000c0: fd07 d8bd 23aa 1d3e 89a1 eabd 8759 e8bb
000000d0: 286b a83d 7448 36bd f9e0 043e 16f8 73bd
000000e0: 422e 983d 8586 9a3c f8e2 e13d 18b4 90bd
000000f0: 109b 7ebd 3f9b 103e b495 993d 9bbd ab3d
00000100: ace2 cabd 5214 c03d fe82 563d 7dd2 cf3d
00000110: 254b d0bc 3564 0d3e 28b1 06be 586b 9abd
00000120: b458 583d 923d 9dbd d88f d73d 60e5 41bc
00000130: a0a6 c9bd fd9c f1bd e580 68bd cbb1 3a3d
00000140: 495f e6bd d5f6 cbbd 5cd4 03bd a688 84be
00000150: fe8c 85bb aaf3 0abd c1e3 ee3a 528a 2cbe
00000160: 168a ecbd d0e6 75bd ea43 bb3c 1e82 873c
00000170: 827e 1b3d 75cd 84bc 2f04 613c b467 fd3c
00000180: d83b 133e d7e4 a5bd 6731 103e cc6a df3b
00000190: b0f0 ac3d 9804 efbc 3009 193c 56f7 a23d
000001a0: f3d8 77bd 2590 0bbd f41c 4ebd b655 d73d
000001b0: 48a1 7e3d f8dd babb 24f7 213c 8b68 f7bd
000001c0: dbf9 d4bc 1f00 fabc 5070 8e3d 3c30 643d
000001d0: 0132 93bd 07ba 293c 9c57 85be 8793 3c3d
000001e0: aac9 88bd 6757 dbbd c260 a3bd d4e2 a1bd
000001f0: 7547 c4bd 7b2c 44be 37a2 a63b fc85 0f3c
00000200: 4ca2 153d 9270 fcbd fb4d b6bb 915b 26bd
00000210: 0ce5 2bbd 8344 593c 6c4b 41bb ed6b c93d
00000220: a023 ea3d 6a55 413d b311 273d fb1f e03d
00000230: 45d2 87bb b690 70bc d4cb eb3d 1299 033e
00000240: a9ac b73d a7e0 36be fd33 383c bb2e 3dbd
00000250: 0ae5 a33d d39e debd c74c 7fbd 6a48 56bd
00000260: 4d0e 233e c53b 3cbd 3209 5bbd f998 30bd
00000270: c0ae 8abd e3a9 7e3d 5187 5dbd 2689 af3c
00000280: 2ab2 efbd 7747 003d 878c 733d 057e afbd
00000290: 2669 3e3d 8cbe b03d 9b17 663d a40a f63c
000002a0: f77b d93d d249 df3d 1246 a1bd 9b60 febd
000002b0: f378 e6bd 42c7 e6bd 64c7 d13c b74c a9bc
000002c0: 82ef ec3c 6af9 5e3d 9673 c13d c9fd a43d
000002d0: a6c4 b73d 33b5 26bc 4669 2c3d 7d38 873d
000002e0: ce42 003e 6ceb c1bd 20a7 213e db17 9bbd
000002f0: 0371 b03d 9566 d9bd b785 5c3d 02fc 0f3d
